…
Added key: store_based_barrier_key:1 to store for rank: 0
Rank 0: Completed store-based barrier for key:store_based_barrier_key:1 with 3 nodes.
Group initialized? True
Fri Jun  2 12:10:51 2023 : Master_node: mauao
Fri Jun  2 12:10:51 2023 : Assigning worker to GPU 0
Rank 2: Completed store-based barrier for key:store_based_barrier_key:1 with 3 nodes.
Fri Jun  2 12:10:51 2023 : Assigning worker to GPU 0
Rank 1: Completed store-based barrier for key:store_based_barrier_key:1 with 3 nodes.
Fri Jun  2 12:10:51 2023 : Assigning worker to GPU 1
Preparing model .. Initializing
SHUFFLENET(
  (net): ShuffleNetV2(
    (conv1): Sequential(
      (0): Conv2d(3, 24, kernel_size=(3, 3), stride=(2, 2), padding=(1, 1), bias=False)
      (1): BatchNorm2d(24, eps=1e-05, momentum=0.1, affine=True, track_running_stats=True)
      (2): ReLU(inplace=True)
    )
    (maxpool): MaxPool2d(kernel_size=3, stride=2, padding=1, dilation=1, ceil_mode=False)
    (stage2): Sequential(
      (0): InvertedResidual(
        (branch1): Sequential(
          (0): Conv2d(24, 24, kernel_size=(3, 3), stride=(2, 2), padding=(1, 1), groups=24, bias=False)
          (1): BatchNorm2d(24, eps=1e-05, momentum=0.1, affine=True, track_running_stats=True)
          (2): Conv2d(24, 122, kernel_size=(1, 1), stride=(1, 1), bias=False)
          (3): BatchNorm2d(122, eps=1e-05, momentum=0.1, affine=True, track_running_stats=True)
          (4): ReLU(inplace=True)
        )
        (branch2): Sequential(
          (0): Conv2d(24, 122, kernel_size=(1, 1), stride=(1, 1), bias=False)
          (1): BatchNorm2d(122, eps=1e-05, momentum=0.1, affine=True, track_running_stats=True)
          (2): ReLU(inplace=True)
          (3): Conv2d(122, 122, kernel_size=(3, 3), stride=(2, 2), padding=(1, 1), groups=122, bias=False)
          (4): BatchNorm2d(122, eps=1e-05, momentum=0.1, affine=True, track_running_stats=True)
          (5): Conv2d(122, 122, kernel_size=(1, 1), stride=(1, 1), bias=False)
          (6): BatchNorm2d(122, eps=1e-05, momentum=0.1, affine=True, track_running_stats=True)
          (7): ReLU(inplace=True)
        )
      )
      (1): InvertedResidual(
        (branch1): Sequential()
        (branch2): Sequential(
          (0): Conv2d(122, 122, kernel_size=(1, 1), stride=(1, 1), bias=False)
          (1): BatchNorm2d(122, eps=1e-05, momentum=0.1, affine=True, track_running_stats=True)
          (2): ReLU(inplace=True)
          (3): Conv2d(122, 122, kernel_size=(3, 3), stride=(1, 1), padding=(1, 1), groups=122, bias=False)
          (4): BatchNorm2d(122, eps=1e-05, momentum=0.1, affine=True, track_running_stats=True)
          (5): Conv2d(122, 122, kernel_size=(1, 1), stride=(1, 1), bias=False)
          (6): BatchNorm2d(122, eps=1e-05, momentum=0.1, affine=True, track_running_stats=True)
          (7): ReLU(inplace=True)
        )
      )
      (2): InvertedResidual(
        (branch1): Sequential()
        (branch2): Sequential(
          (0): Conv2d(122, 122, kernel_size=(1, 1), stride=(1, 1), bias=False)
          (1): BatchNorm2d(122, eps=1e-05, momentum=0.1, affine=True, track_running_stats=True)
          (2): ReLU(inplace=True)
          (3): Conv2d(122, 122, kernel_size=(3, 3), stride=(1, 1), padding=(1, 1), groups=122, bias=False)
          (4): BatchNorm2d(122, eps=1e-05, momentum=0.1, affine=True, track_running_stats=True)
          (5): Conv2d(122, 122, kernel_size=(1, 1), stride=(1, 1), bias=False)
          (6): BatchNorm2d(122, eps=1e-05, momentum=0.1, affine=True, track_running_stats=True)
          (7): ReLU(inplace=True)
        )
      )
      (3): InvertedResidual(
        (branch1): Sequential()
        (branch2): Sequential(
          (0): Conv2d(122, 122, kernel_size=(1, 1), stride=(1, 1), bias=False)
          (1): BatchNorm2d(122, eps=1e-05, momentum=0.1, affine=True, track_running_stats=True)
          (2): ReLU(inplace=True)
          (3): Conv2d(122, 122, kernel_size=(3, 3), stride=(1, 1), padding=(1, 1), groups=122, bias=False)
          (4): BatchNorm2d(122, eps=1e-05, momentum=0.1, affine=True, track_running_stats=True)
          (5): Conv2d(122, 122, kernel_size=(1, 1), stride=(1, 1), bias=False)
          (6): BatchNorm2d(122, eps=1e-05, momentum=0.1, affine=True, track_running_stats=True)
          (7): ReLU(inplace=True)
        )
      )
    )
    (stage3): Sequential(
      (0): InvertedResidual(
        (branch1): Sequential(
          (0): Conv2d(244, 244, kernel_size=(3, 3), stride=(2, 2), padding=(1, 1), groups=244, bias=False)
          (1): BatchNorm2d(244, eps=1e-05, momentum=0.1, affine=True, track_running_stats=True)
          (2): Conv2d(244, 244, kernel_size=(1, 1), stride=(1, 1), bias=False)
          (3): BatchNorm2d(244, eps=1e-05, momentum=0.1, affine=True, track_running_stats=True)
          (4): ReLU(inplace=True)
        )
        (branch2): Sequential(
          (0): Conv2d(244, 244, kernel_size=(1, 1), stride=(1, 1), bias=False)
          (1): BatchNorm2d(244, eps=1e-05, momentum=0.1, affine=True, track_running_stats=True)
          (2): ReLU(inplace=True)
          (3): Conv2d(244, 244, kernel_size=(3, 3), stride=(2, 2), padding=(1, 1), groups=244, bias=False)
          (4): BatchNorm2d(244, eps=1e-05, momentum=0.1, affine=True, track_running_stats=True)
          (5): Conv2d(244, 244, kernel_size=(1, 1), stride=(1, 1), bias=False)
          (6): BatchNorm2d(244, eps=1e-05, momentum=0.1, affine=True, track_running_stats=True)
          (7): ReLU(inplace=True)
        )
      )
      (1): InvertedResidual(
        (branch1): Sequential()
        (branch2): Sequential(
          (0): Conv2d(244, 244, kernel_size=(1, 1), stride=(1, 1), bias=False)
          (1): BatchNorm2d(244, eps=1e-05, momentum=0.1, affine=True, track_running_stats=True)
          (2): ReLU(inplace=True)
          (3): Conv2d(244, 244, kernel_size=(3, 3), stride=(1, 1), padding=(1, 1), groups=244, bias=False)
          (4): BatchNorm2d(244, eps=1e-05, momentum=0.1, affine=True, track_running_stats=True)
          (5): Conv2d(244, 244, kernel_size=(1, 1), stride=(1, 1), bias=False)
          (6): BatchNorm2d(244, eps=1e-05, momentum=0.1, affine=True, track_running_stats=True)
          (7): ReLU(inplace=True)
        )
      )
      (2): InvertedResidual(
        (branch1): Sequential()
        (branch2): Sequential(
          (0): Conv2d(244, 244, kernel_size=(1, 1), stride=(1, 1), bias=False)
          (1): BatchNorm2d(244, eps=1e-05, momentum=0.1, affine=True, track_running_stats=True)
          (2): ReLU(inplace=True)
          (3): Conv2d(244, 244, kernel_size=(3, 3), stride=(1, 1), padding=(1, 1), groups=244, bias=False)
          (4): BatchNorm2d(244, eps=1e-05, momentum=0.1, affine=True, track_running_stats=True)
          (5): Conv2d(244, 244, kernel_size=(1, 1), stride=(1, 1), bias=False)
          (6): BatchNorm2d(244, eps=1e-05, momentum=0.1, affine=True, track_running_stats=True)
          (7): ReLU(inplace=True)
        )
      )
      (3): InvertedResidual(
        (branch1): Sequential()
        (branch2): Sequential(
          (0): Conv2d(244, 244, kernel_size=(1, 1), stride=(1, 1), bias=False)
          (1): BatchNorm2d(244, eps=1e-05, momentum=0.1, affine=True, track_running_stats=True)
          (2): ReLU(inplace=True)
          (3): Conv2d(244, 244, kernel_size=(3, 3), stride=(1, 1), padding=(1, 1), groups=244, bias=False)
          (4): BatchNorm2d(244, eps=1e-05, momentum=0.1, affine=True, track_running_stats=True)
          (5): Conv2d(244, 244, kernel_size=(1, 1), stride=(1, 1), bias=False)
          (6): BatchNorm2d(244, eps=1e-05, momentum=0.1, affine=True, track_running_stats=True)
          (7): ReLU(inplace=True)
        )
      )
      (4): InvertedResidual(
        (branch1): Sequential()
        (branch2): Sequential(
          (0): Conv2d(244, 244, kernel_size=(1, 1), stride=(1, 1), bias=False)
          (1): BatchNorm2d(244, eps=1e-05, momentum=0.1, affine=True, track_running_stats=True)
          (2): ReLU(inplace=True)
          (3): Conv2d(244, 244, kernel_size=(3, 3), stride=(1, 1), padding=(1, 1), groups=244, bias=False)
          (4): BatchNorm2d(244, eps=1e-05, momentum=0.1, affine=True, track_running_stats=True)
          (5): Conv2d(244, 244, kernel_size=(1, 1), stride=(1, 1), bias=False)
          (6): BatchNorm2d(244, eps=1e-05, momentum=0.1, affine=True, track_running_stats=True)
          (7): ReLU(inplace=True)
        )
      )
      (5): InvertedResidual(
        (branch1): Sequential()
        (branch2): Sequential(
          (0): Conv2d(244, 244, kernel_size=(1, 1), stride=(1, 1), bias=False)
          (1): BatchNorm2d(244, eps=1e-05, momentum=0.1, affine=True, track_running_stats=True)
          (2): ReLU(inplace=True)
          (3): Conv2d(244, 244, kernel_size=(3, 3), stride=(1, 1), padding=(1, 1), groups=244, bias=False)
          (4): BatchNorm2d(244, eps=1e-05, momentum=0.1, affine=True, track_running_stats=True)
          (5): Conv2d(244, 244, kernel_size=(1, 1), stride=(1, 1), bias=False)
          (6): BatchNorm2d(244, eps=1e-05, momentum=0.1, affine=True, track_running_stats=True)
          (7): ReLU(inplace=True)
        )
      )
      (6): InvertedResidual(
        (branch1): Sequential()
        (branch2): Sequential(
          (0): Conv2d(244, 244, kernel_size=(1, 1), stride=(1, 1), bias=False)
          (1): BatchNorm2d(244, eps=1e-05, momentum=0.1, affine=True, track_running_stats=True)
          (2): ReLU(inplace=True)
          (3): Conv2d(244, 244, kernel_size=(3, 3), stride=(1, 1), padding=(1, 1), groups=244, bias=False)
          (4): BatchNorm2d(244, eps=1e-05, momentum=0.1, affine=True, track_running_stats=True)
          (5): Conv2d(244, 244, kernel_size=(1, 1), stride=(1, 1), bias=False)
          (6): BatchNorm2d(244, eps=1e-05, momentum=0.1, affine=True, track_running_stats=True)
          (7): ReLU(inplace=True)
        )
      )
      (7): InvertedResidual(
        (branch1): Sequential()
        (branch2): Sequential(
          (0): Conv2d(244, 244, kernel_size=(1, 1), stride=(1, 1), bias=False)
          (1): BatchNorm2d(244, eps=1e-05, momentum=0.1, affine=True, track_running_stats=True)
          (2): ReLU(inplace=True)
          (3): Conv2d(244, 244, kernel_size=(3, 3), stride=(1, 1), padding=(1, 1), groups=244, bias=False)
          (4): BatchNorm2d(244, eps=1e-05, momentum=0.1, affine=True, track_running_stats=True)
          (5): Conv2d(244, 244, kernel_size=(1, 1), stride=(1, 1), bias=False)
          (6): BatchNorm2d(244, eps=1e-05, momentum=0.1, affine=True, track_running_stats=True)
          (7): ReLU(inplace=True)
        )
      )
    )
    (stage4): Sequential(
      (0): InvertedResidual(
        (branch1): Sequential(
          (0): Conv2d(488, 488, kernel_size=(3, 3), stride=(2, 2), padding=(1, 1), groups=488, bias=False)
          (1): BatchNorm2d(488, eps=1e-05, momentum=0.1, affine=True, track_running_stats=True)
          (2): Conv2d(488, 488, kernel_size=(1, 1), stride=(1, 1), bias=False)
          (3): BatchNorm2d(488, eps=1e-05, momentum=0.1, affine=True, track_running_stats=True)
          (4): ReLU(inplace=True)
        )
        (branch2): Sequential(
          (0): Conv2d(488, 488, kernel_size=(1, 1), stride=(1, 1), bias=False)
          (1): BatchNorm2d(488, eps=1e-05, momentum=0.1, affine=True, track_running_stats=True)
          (2): ReLU(inplace=True)
          (3): Conv2d(488, 488, kernel_size=(3, 3), stride=(2, 2), padding=(1, 1), groups=488, bias=False)
          (4): BatchNorm2d(488, eps=1e-05, momentum=0.1, affine=True, track_running_stats=True)
          (5): Conv2d(488, 488, kernel_size=(1, 1), stride=(1, 1), bias=False)
          (6): BatchNorm2d(488, eps=1e-05, momentum=0.1, affine=True, track_running_stats=True)
          (7): ReLU(inplace=True)
        )
      )
      (1): InvertedResidual(
        (branch1): Sequential()
        (branch2): Sequential(
          (0): Conv2d(488, 488, kernel_size=(1, 1), stride=(1, 1), bias=False)
          (1): BatchNorm2d(488, eps=1e-05, momentum=0.1, affine=True, track_running_stats=True)
          (2): ReLU(inplace=True)
          (3): Conv2d(488, 488, kernel_size=(3, 3), stride=(1, 1), padding=(1, 1), groups=488, bias=False)
          (4): BatchNorm2d(488, eps=1e-05, momentum=0.1, affine=True, track_running_stats=True)
          (5): Conv2d(488, 488, kernel_size=(1, 1), stride=(1, 1), bias=False)
          (6): BatchNorm2d(488, eps=1e-05, momentum=0.1, affine=True, track_running_stats=True)
          (7): ReLU(inplace=True)
        )
      )
      (2): InvertedResidual(
        (branch1): Sequential()
        (branch2): Sequential(
          (0): Conv2d(488, 488, kernel_size=(1, 1), stride=(1, 1), bias=False)
          (1): BatchNorm2d(488, eps=1e-05, momentum=0.1, affine=True, track_running_stats=True)
          (2): ReLU(inplace=True)
          (3): Conv2d(488, 488, kernel_size=(3, 3), stride=(1, 1), padding=(1, 1), groups=488, bias=False)
          (4): BatchNorm2d(488, eps=1e-05, momentum=0.1, affine=True, track_running_stats=True)
          (5): Conv2d(488, 488, kernel_size=(1, 1), stride=(1, 1), bias=False)
          (6): BatchNorm2d(488, eps=1e-05, momentum=0.1, affine=True, track_running_stats=True)
          (7): ReLU(inplace=True)
        )
      )
      (3): InvertedResidual(
        (branch1): Sequential()
        (branch2): Sequential(
          (0): Conv2d(488, 488, kernel_size=(1, 1), stride=(1, 1), bias=False)
          (1): BatchNorm2d(488, eps=1e-05, momentum=0.1, affine=True, track_running_stats=True)
          (2): ReLU(inplace=True)
          (3): Conv2d(488, 488, kernel_size=(3, 3), stride=(1, 1), padding=(1, 1), groups=488, bias=False)
          (4): BatchNorm2d(488, eps=1e-05, momentum=0.1, affine=True, track_running_stats=True)
          (5): Conv2d(488, 488, kernel_size=(1, 1), stride=(1, 1), bias=False)
          (6): BatchNorm2d(488, eps=1e-05, momentum=0.1, affine=True, track_running_stats=True)
          (7): ReLU(inplace=True)
        )
      )
    )
    (conv5): Sequential(
      (0): Conv2d(976, 2048, kernel_size=(1, 1), stride=(1, 1), bias=False)
      (1): BatchNorm2d(2048, eps=1e-05, momentum=0.1, affine=True, track_running_stats=True)
      (2): ReLU(inplace=True)
    )
    (fc): Linear(in_features=2048, out_features=1000, bias=True)
  )
)
Fri Jun  2 12:10:51 2023 : initialize model with default settings
Fri Jun  2 12:10:51 2023 : trying to move the model to GPU
Preparing model .. Initializing
SHUFFLENET(
  (net): ShuffleNetV2(
    (conv1): Sequential(
      (0): Conv2d(3, 24, kernel_size=(3, 3), stride=(2, 2), padding=(1, 1), bias=False)
      (1): BatchNorm2d(24, eps=1e-05, momentum=0.1, affine=True, track_running_stats=True)
      (2): ReLU(inplace=True)
    )
    (maxpool): MaxPool2d(kernel_size=3, stride=2, padding=1, dilation=1, ceil_mode=False)
    (stage2): Sequential(
      (0): InvertedResidual(
        (branch1): Sequential(
          (0): Conv2d(24, 24, kernel_size=(3, 3), stride=(2, 2), padding=(1, 1), groups=24, bias=False)
          (1): BatchNorm2d(24, eps=1e-05, momentum=0.1, affine=True, track_running_stats=True)
          (2): Conv2d(24, 122, kernel_size=(1, 1), stride=(1, 1), bias=False)
          (3): BatchNorm2d(122, eps=1e-05, momentum=0.1, affine=True, track_running_stats=True)
          (4): ReLU(inplace=True)
        )
        (branch2): Sequential(
          (0): Conv2d(24, 122, kernel_size=(1, 1), stride=(1, 1), bias=False)
          (1): BatchNorm2d(122, eps=1e-05, momentum=0.1, affine=True, track_running_stats=True)
          (2): ReLU(inplace=True)
          (3): Conv2d(122, 122, kernel_size=(3, 3), stride=(2, 2), padding=(1, 1), groups=122, bias=False)
          (4): BatchNorm2d(122, eps=1e-05, momentum=0.1, affine=True, track_running_stats=True)
          (5): Conv2d(122, 122, kernel_size=(1, 1), stride=(1, 1), bias=False)
          (6): BatchNorm2d(122, eps=1e-05, momentum=0.1, affine=True, track_running_stats=True)
          (7): ReLU(inplace=True)
        )
      )
      (1): InvertedResidual(
        (branch1): Sequential()
        (branch2): Sequential(
          (0): Conv2d(122, 122, kernel_size=(1, 1), stride=(1, 1), bias=False)
          (1): BatchNorm2d(122, eps=1e-05, momentum=0.1, affine=True, track_running_stats=True)
          (2): ReLU(inplace=True)
          (3): Conv2d(122, 122, kernel_size=(3, 3), stride=(1, 1), padding=(1, 1), groups=122, bias=False)
          (4): BatchNorm2d(122, eps=1e-05, momentum=0.1, affine=True, track_running_stats=True)
          (5): Conv2d(122, 122, kernel_size=(1, 1), stride=(1, 1), bias=False)
          (6): BatchNorm2d(122, eps=1e-05, momentum=0.1, affine=True, track_running_stats=True)
          (7): ReLU(inplace=True)
        )
      )
      (2): InvertedResidual(
        (branch1): Sequential()
        (branch2): Sequential(
          (0): Conv2d(122, 122, kernel_size=(1, 1), stride=(1, 1), bias=False)
          (1): BatchNorm2d(122, eps=1e-05, momentum=0.1, affine=True, track_running_stats=True)
          (2): ReLU(inplace=True)
          (3): Conv2d(122, 122, kernel_size=(3, 3), stride=(1, 1), padding=(1, 1), groups=122, bias=False)
          (4): BatchNorm2d(122, eps=1e-05, momentum=0.1, affine=True, track_running_stats=True)
          (5): Conv2d(122, 122, kernel_size=(1, 1), stride=(1, 1), bias=False)
          (6): BatchNorm2d(122, eps=1e-05, momentum=0.1, affine=True, track_running_stats=True)
          (7): ReLU(inplace=True)
        )
      )
      (3): InvertedResidual(
        (branch1): Sequential()
        (branch2): Sequential(
          (0): Conv2d(122, 122, kernel_size=(1, 1), stride=(1, 1), bias=False)
          (1): BatchNorm2d(122, eps=1e-05, momentum=0.1, affine=True, track_running_stats=True)
          (2): ReLU(inplace=True)
          (3): Conv2d(122, 122, kernel_size=(3, 3), stride=(1, 1), padding=(1, 1), groups=122, bias=False)
          (4): BatchNorm2d(122, eps=1e-05, momentum=0.1, affine=True, track_running_stats=True)
          (5): Conv2d(122, 122, kernel_size=(1, 1), stride=(1, 1), bias=False)
          (6): BatchNorm2d(122, eps=1e-05, momentum=0.1, affine=True, track_running_stats=True)
          (7): ReLU(inplace=True)
        )
      )
    )
    (stage3): Sequential(
      (0): InvertedResidual(
        (branch1): Sequential(
          (0): Conv2d(244, 244, kernel_size=(3, 3), stride=(2, 2), padding=(1, 1), groups=244, bias=False)
          (1): BatchNorm2d(244, eps=1e-05, momentum=0.1, affine=True, track_running_stats=True)
          (2): Conv2d(244, 244, kernel_size=(1, 1), stride=(1, 1), bias=False)
          (3): BatchNorm2d(244, eps=1e-05, momentum=0.1, affine=True, track_running_stats=True)
          (4): ReLU(inplace=True)
        )
        (branch2): Sequential(
          (0): Conv2d(244, 244, kernel_size=(1, 1), stride=(1, 1), bias=False)
          (1): BatchNorm2d(244, eps=1e-05, momentum=0.1, affine=True, track_running_stats=True)
          (2): ReLU(inplace=True)
          (3): Conv2d(244, 244, kernel_size=(3, 3), stride=(2, 2), padding=(1, 1), groups=244, bias=False)
          (4): BatchNorm2d(244, eps=1e-05, momentum=0.1, affine=True, track_running_stats=True)
          (5): Conv2d(244, 244, kernel_size=(1, 1), stride=(1, 1), bias=False)
          (6): BatchNorm2d(244, eps=1e-05, momentum=0.1, affine=True, track_running_stats=True)
          (7): ReLU(inplace=True)
        )
      )
      (1): InvertedResidual(
        (branch1): Sequential()
        (branch2): Sequential(
          (0): Conv2d(244, 244, kernel_size=(1, 1), stride=(1, 1), bias=False)
          (1): BatchNorm2d(244, eps=1e-05, momentum=0.1, affine=True, track_running_stats=True)
          (2): ReLU(inplace=True)
          (3): Conv2d(244, 244, kernel_size=(3, 3), stride=(1, 1), padding=(1, 1), groups=244, bias=False)
          (4): BatchNorm2d(244, eps=1e-05, momentum=0.1, affine=True, track_running_stats=True)
          (5): Conv2d(244, 244, kernel_size=(1, 1), stride=(1, 1), bias=False)
          (6): BatchNorm2d(244, eps=1e-05, momentum=0.1, affine=True, track_running_stats=True)
          (7): ReLU(inplace=True)
        )
      )
      (2): InvertedResidual(
        (branch1): Sequential()
        (branch2): Sequential(
          (0): Conv2d(244, 244, kernel_size=(1, 1), stride=(1, 1), bias=False)
          (1): BatchNorm2d(244, eps=1e-05, momentum=0.1, affine=True, track_running_stats=True)
          (2): ReLU(inplace=True)
          (3): Conv2d(244, 244, kernel_size=(3, 3), stride=(1, 1), padding=(1, 1), groups=244, bias=False)
          (4): BatchNorm2d(244, eps=1e-05, momentum=0.1, affine=True, track_running_stats=True)
          (5): Conv2d(244, 244, kernel_size=(1, 1), stride=(1, 1), bias=False)
          (6): BatchNorm2d(244, eps=1e-05, momentum=0.1, affine=True, track_running_stats=True)
          (7): ReLU(inplace=True)
        )
      )
      (3): InvertedResidual(
        (branch1): Sequential()
        (branch2): Sequential(
          (0): Conv2d(244, 244, kernel_size=(1, 1), stride=(1, 1), bias=False)
          (1): BatchNorm2d(244, eps=1e-05, momentum=0.1, affine=True, track_running_stats=True)
          (2): ReLU(inplace=True)
          (3): Conv2d(244, 244, kernel_size=(3, 3), stride=(1, 1), padding=(1, 1), groups=244, bias=False)
          (4): BatchNorm2d(244, eps=1e-05, momentum=0.1, affine=True, track_running_stats=True)
          (5): Conv2d(244, 244, kernel_size=(1, 1), stride=(1, 1), bias=False)
          (6): BatchNorm2d(244, eps=1e-05, momentum=0.1, affine=True, track_running_stats=True)
          (7): ReLU(inplace=True)
        )
      )
      (4): InvertedResidual(
        (branch1): Sequential()
        (branch2): Sequential(
          (0): Conv2d(244, 244, kernel_size=(1, 1), stride=(1, 1), bias=False)
          (1): BatchNorm2d(244, eps=1e-05, momentum=0.1, affine=True, track_running_stats=True)
          (2): ReLU(inplace=True)
          (3): Conv2d(244, 244, kernel_size=(3, 3), stride=(1, 1), padding=(1, 1), groups=244, bias=False)
          (4): BatchNorm2d(244, eps=1e-05, momentum=0.1, affine=True, track_running_stats=True)
          (5): Conv2d(244, 244, kernel_size=(1, 1), stride=(1, 1), bias=False)
          (6): BatchNorm2d(244, eps=1e-05, momentum=0.1, affine=True, track_running_stats=True)
          (7): ReLU(inplace=True)
        )
      )
      (5): InvertedResidual(
        (branch1): Sequential()
        (branch2): Sequential(
          (0): Conv2d(244, 244, kernel_size=(1, 1), stride=(1, 1), bias=False)
          (1): BatchNorm2d(244, eps=1e-05, momentum=0.1, affine=True, track_running_stats=True)
          (2): ReLU(inplace=True)
          (3): Conv2d(244, 244, kernel_size=(3, 3), stride=(1, 1), padding=(1, 1), groups=244, bias=False)
          (4): BatchNorm2d(244, eps=1e-05, momentum=0.1, affine=True, track_running_stats=True)
          (5): Conv2d(244, 244, kernel_size=(1, 1), stride=(1, 1), bias=False)
          (6): BatchNorm2d(244, eps=1e-05, momentum=0.1, affine=True, track_running_stats=True)
          (7): ReLU(inplace=True)
        )
      )
      (6): InvertedResidual(
        (branch1): Sequential()
        (branch2): Sequential(
          (0): Conv2d(244, 244, kernel_size=(1, 1), stride=(1, 1), bias=False)
          (1): BatchNorm2d(244, eps=1e-05, momentum=0.1, affine=True, track_running_stats=True)
          (2): ReLU(inplace=True)
          (3): Conv2d(244, 244, kernel_size=(3, 3), stride=(1, 1), padding=(1, 1), groups=244, bias=False)
          (4): BatchNorm2d(244, eps=1e-05, momentum=0.1, affine=True, track_running_stats=True)
          (5): Conv2d(244, 244, kernel_size=(1, 1), stride=(1, 1), bias=False)
          (6): BatchNorm2d(244, eps=1e-05, momentum=0.1, affine=True, track_running_stats=True)
          (7): ReLU(inplace=True)
        )
      )
      (7): InvertedResidual(
        (branch1): Sequential()
        (branch2): Sequential(
          (0): Conv2d(244, 244, kernel_size=(1, 1), stride=(1, 1), bias=False)
          (1): BatchNorm2d(244, eps=1e-05, momentum=0.1, affine=True, track_running_stats=True)
          (2): ReLU(inplace=True)
          (3): Conv2d(244, 244, kernel_size=(3, 3), stride=(1, 1), padding=(1, 1), groups=244, bias=False)
          (4): BatchNorm2d(244, eps=1e-05, momentum=0.1, affine=True, track_running_stats=True)
          (5): Conv2d(244, 244, kernel_size=(1, 1), stride=(1, 1), bias=False)
          (6): BatchNorm2d(244, eps=1e-05, momentum=0.1, affine=True, track_running_stats=True)
          (7): ReLU(inplace=True)
        )
      )
    )
    (stage4): Sequential(
      (0): InvertedResidual(
        (branch1): Sequential(
          (0): Conv2d(488, 488, kernel_size=(3, 3), stride=(2, 2), padding=(1, 1), groups=488, bias=False)
          (1): BatchNorm2d(488, eps=1e-05, momentum=0.1, affine=True, track_running_stats=True)
          (2): Conv2d(488, 488, kernel_size=(1, 1), stride=(1, 1), bias=False)
          (3): BatchNorm2d(488, eps=1e-05, momentum=0.1, affine=True, track_running_stats=True)
          (4): ReLU(inplace=True)
        )
        (branch2): Sequential(
          (0): Conv2d(488, 488, kernel_size=(1, 1), stride=(1, 1), bias=False)
          (1): BatchNorm2d(488, eps=1e-05, momentum=0.1, affine=True, track_running_stats=True)
          (2): ReLU(inplace=True)
          (3): Conv2d(488, 488, kernel_size=(3, 3), stride=(2, 2), padding=(1, 1), groups=488, bias=False)
          (4): BatchNorm2d(488, eps=1e-05, momentum=0.1, affine=True, track_running_stats=True)
          (5): Conv2d(488, 488, kernel_size=(1, 1), stride=(1, 1), bias=False)
          (6): BatchNorm2d(488, eps=1e-05, momentum=0.1, affine=True, track_running_stats=True)
          (7): ReLU(inplace=True)
        )
      )
      (1): InvertedResidual(
        (branch1): Sequential()
        (branch2): Sequential(
          (0): Conv2d(488, 488, kernel_size=(1, 1), stride=(1, 1), bias=False)
          (1): BatchNorm2d(488, eps=1e-05, momentum=0.1, affine=True, track_running_stats=True)
          (2): ReLU(inplace=True)
          (3): Conv2d(488, 488, kernel_size=(3, 3), stride=(1, 1), padding=(1, 1), groups=488, bias=False)
          (4): BatchNorm2d(488, eps=1e-05, momentum=0.1, affine=True, track_running_stats=True)
          (5): Conv2d(488, 488, kernel_size=(1, 1), stride=(1, 1), bias=False)
          (6): BatchNorm2d(488, eps=1e-05, momentum=0.1, affine=True, track_running_stats=True)
          (7): ReLU(inplace=True)
        )
      )
      (2): InvertedResidual(
        (branch1): Sequential()
        (branch2): Sequential(
          (0): Conv2d(488, 488, kernel_size=(1, 1), stride=(1, 1), bias=False)
          (1): BatchNorm2d(488, eps=1e-05, momentum=0.1, affine=True, track_running_stats=True)
          (2): ReLU(inplace=True)
          (3): Conv2d(488, 488, kernel_size=(3, 3), stride=(1, 1), padding=(1, 1), groups=488, bias=False)
          (4): BatchNorm2d(488, eps=1e-05, momentum=0.1, affine=True, track_running_stats=True)
          (5): Conv2d(488, 488, kernel_size=(1, 1), stride=(1, 1), bias=False)
          (6): BatchNorm2d(488, eps=1e-05, momentum=0.1, affine=True, track_running_stats=True)
          (7): ReLU(inplace=True)
        )
      )
      (3): InvertedResidual(
        (branch1): Sequential()
        (branch2): Sequential(
          (0): Conv2d(488, 488, kernel_size=(1, 1), stride=(1, 1), bias=False)
          (1): BatchNorm2d(488, eps=1e-05, momentum=0.1, affine=True, track_running_stats=True)
          (2): ReLU(inplace=True)
          (3): Conv2d(488, 488, kernel_size=(3, 3), stride=(1, 1), padding=(1, 1), groups=488, bias=False)
          (4): BatchNorm2d(488, eps=1e-05, momentum=0.1, affine=True, track_running_stats=True)
          (5): Conv2d(488, 488, kernel_size=(1, 1), stride=(1, 1), bias=False)
          (6): BatchNorm2d(488, eps=1e-05, momentum=0.1, affine=True, track_running_stats=True)
          (7): ReLU(inplace=True)
        )
      )
    )
    (conv5): Sequential(
      (0): Conv2d(976, 2048, kernel_size=(1, 1), stride=(1, 1), bias=False)
      (1): BatchNorm2d(2048, eps=1e-05, momentum=0.1, affine=True, track_running_stats=True)
      (2): ReLU(inplace=True)
    )
    (fc): Linear(in_features=2048, out_features=1000, bias=True)
  )
)
Fri Jun  2 12:10:51 2023 : initialize model with default settings
Fri Jun  2 12:10:51 2023 : trying to move the model to GPU
Preparing model .. Initializing
SHUFFLENET(
  (net): ShuffleNetV2(
    (conv1): Sequential(
      (0): Conv2d(3, 24, kernel_size=(3, 3), stride=(2, 2), padding=(1, 1), bias=False)
      (1): BatchNorm2d(24, eps=1e-05, momentum=0.1, affine=True, track_running_stats=True)
      (2): ReLU(inplace=True)
    )
    (maxpool): MaxPool2d(kernel_size=3, stride=2, padding=1, dilation=1, ceil_mode=False)
    (stage2): Sequential(
      (0): InvertedResidual(
        (branch1): Sequential(
          (0): Conv2d(24, 24, kernel_size=(3, 3), stride=(2, 2), padding=(1, 1), groups=24, bias=False)
          (1): BatchNorm2d(24, eps=1e-05, momentum=0.1, affine=True, track_running_stats=True)
          (2): Conv2d(24, 122, kernel_size=(1, 1), stride=(1, 1), bias=False)
          (3): BatchNorm2d(122, eps=1e-05, momentum=0.1, affine=True, track_running_stats=True)
          (4): ReLU(inplace=True)
        )
        (branch2): Sequential(
          (0): Conv2d(24, 122, kernel_size=(1, 1), stride=(1, 1), bias=False)
          (1): BatchNorm2d(122, eps=1e-05, momentum=0.1, affine=True, track_running_stats=True)
          (2): ReLU(inplace=True)
          (3): Conv2d(122, 122, kernel_size=(3, 3), stride=(2, 2), padding=(1, 1), groups=122, bias=False)
          (4): BatchNorm2d(122, eps=1e-05, momentum=0.1, affine=True, track_running_stats=True)
          (5): Conv2d(122, 122, kernel_size=(1, 1), stride=(1, 1), bias=False)
          (6): BatchNorm2d(122, eps=1e-05, momentum=0.1, affine=True, track_running_stats=True)
          (7): ReLU(inplace=True)
        )
      )
      (1): InvertedResidual(
        (branch1): Sequential()
        (branch2): Sequential(
          (0): Conv2d(122, 122, kernel_size=(1, 1), stride=(1, 1), bias=False)
          (1): BatchNorm2d(122, eps=1e-05, momentum=0.1, affine=True, track_running_stats=True)
          (2): ReLU(inplace=True)
          (3): Conv2d(122, 122, kernel_size=(3, 3), stride=(1, 1), padding=(1, 1), groups=122, bias=False)
          (4): BatchNorm2d(122, eps=1e-05, momentum=0.1, affine=True, track_running_stats=True)
          (5): Conv2d(122, 122, kernel_size=(1, 1), stride=(1, 1), bias=False)
          (6): BatchNorm2d(122, eps=1e-05, momentum=0.1, affine=True, track_running_stats=True)
          (7): ReLU(inplace=True)
        )
      )
      (2): InvertedResidual(
        (branch1): Sequential()
        (branch2): Sequential(
          (0): Conv2d(122, 122, kernel_size=(1, 1), stride=(1, 1), bias=False)
          (1): BatchNorm2d(122, eps=1e-05, momentum=0.1, affine=True, track_running_stats=True)
          (2): ReLU(inplace=True)
          (3): Conv2d(122, 122, kernel_size=(3, 3), stride=(1, 1), padding=(1, 1), groups=122, bias=False)
          (4): BatchNorm2d(122, eps=1e-05, momentum=0.1, affine=True, track_running_stats=True)
          (5): Conv2d(122, 122, kernel_size=(1, 1), stride=(1, 1), bias=False)
          (6): BatchNorm2d(122, eps=1e-05, momentum=0.1, affine=True, track_running_stats=True)
          (7): ReLU(inplace=True)
        )
      )
      (3): InvertedResidual(
        (branch1): Sequential()
        (branch2): Sequential(
          (0): Conv2d(122, 122, kernel_size=(1, 1), stride=(1, 1), bias=False)
          (1): BatchNorm2d(122, eps=1e-05, momentum=0.1, affine=True, track_running_stats=True)
          (2): ReLU(inplace=True)
          (3): Conv2d(122, 122, kernel_size=(3, 3), stride=(1, 1), padding=(1, 1), groups=122, bias=False)
          (4): BatchNorm2d(122, eps=1e-05, momentum=0.1, affine=True, track_running_stats=True)
          (5): Conv2d(122, 122, kernel_size=(1, 1), stride=(1, 1), bias=False)
          (6): BatchNorm2d(122, eps=1e-05, momentum=0.1, affine=True, track_running_stats=True)
          (7): ReLU(inplace=True)
        )
      )
    )
    (stage3): Sequential(
      (0): InvertedResidual(
        (branch1): Sequential(
          (0): Conv2d(244, 244, kernel_size=(3, 3), stride=(2, 2), padding=(1, 1), groups=244, bias=False)
          (1): BatchNorm2d(244, eps=1e-05, momentum=0.1, affine=True, track_running_stats=True)
          (2): Conv2d(244, 244, kernel_size=(1, 1), stride=(1, 1), bias=False)
          (3): BatchNorm2d(244, eps=1e-05, momentum=0.1, affine=True, track_running_stats=True)
          (4): ReLU(inplace=True)
        )
        (branch2): Sequential(
          (0): Conv2d(244, 244, kernel_size=(1, 1), stride=(1, 1), bias=False)
          (1): BatchNorm2d(244, eps=1e-05, momentum=0.1, affine=True, track_running_stats=True)
          (2): ReLU(inplace=True)
          (3): Conv2d(244, 244, kernel_size=(3, 3), stride=(2, 2), padding=(1, 1), groups=244, bias=False)
          (4): BatchNorm2d(244, eps=1e-05, momentum=0.1, affine=True, track_running_stats=True)
          (5): Conv2d(244, 244, kernel_size=(1, 1), stride=(1, 1), bias=False)
          (6): BatchNorm2d(244, eps=1e-05, momentum=0.1, affine=True, track_running_stats=True)
          (7): ReLU(inplace=True)
        )
      )
      (1): InvertedResidual(
        (branch1): Sequential()
        (branch2): Sequential(
          (0): Conv2d(244, 244, kernel_size=(1, 1), stride=(1, 1), bias=False)
          (1): BatchNorm2d(244, eps=1e-05, momentum=0.1, affine=True, track_running_stats=True)
          (2): ReLU(inplace=True)
          (3): Conv2d(244, 244, kernel_size=(3, 3), stride=(1, 1), padding=(1, 1), groups=244, bias=False)
          (4): BatchNorm2d(244, eps=1e-05, momentum=0.1, affine=True, track_running_stats=True)
          (5): Conv2d(244, 244, kernel_size=(1, 1), stride=(1, 1), bias=False)
          (6): BatchNorm2d(244, eps=1e-05, momentum=0.1, affine=True, track_running_stats=True)
          (7): ReLU(inplace=True)
        )
      )
      (2): InvertedResidual(
        (branch1): Sequential()
        (branch2): Sequential(
          (0): Conv2d(244, 244, kernel_size=(1, 1), stride=(1, 1), bias=False)
          (1): BatchNorm2d(244, eps=1e-05, momentum=0.1, affine=True, track_running_stats=True)
          (2): ReLU(inplace=True)
          (3): Conv2d(244, 244, kernel_size=(3, 3), stride=(1, 1), padding=(1, 1), groups=244, bias=False)
          (4): BatchNorm2d(244, eps=1e-05, momentum=0.1, affine=True, track_running_stats=True)
          (5): Conv2d(244, 244, kernel_size=(1, 1), stride=(1, 1), bias=False)
          (6): BatchNorm2d(244, eps=1e-05, momentum=0.1, affine=True, track_running_stats=True)
          (7): ReLU(inplace=True)
        )
      )
      (3): InvertedResidual(
        (branch1): Sequential()
        (branch2): Sequential(
          (0): Conv2d(244, 244, kernel_size=(1, 1), stride=(1, 1), bias=False)
          (1): BatchNorm2d(244, eps=1e-05, momentum=0.1, affine=True, track_running_stats=True)
          (2): ReLU(inplace=True)
          (3): Conv2d(244, 244, kernel_size=(3, 3), stride=(1, 1), padding=(1, 1), groups=244, bias=False)
          (4): BatchNorm2d(244, eps=1e-05, momentum=0.1, affine=True, track_running_stats=True)
          (5): Conv2d(244, 244, kernel_size=(1, 1), stride=(1, 1), bias=False)
          (6): BatchNorm2d(244, eps=1e-05, momentum=0.1, affine=True, track_running_stats=True)
          (7): ReLU(inplace=True)
        )
      )
      (4): InvertedResidual(
        (branch1): Sequential()
        (branch2): Sequential(
          (0): Conv2d(244, 244, kernel_size=(1, 1), stride=(1, 1), bias=False)
          (1): BatchNorm2d(244, eps=1e-05, momentum=0.1, affine=True, track_running_stats=True)
          (2): ReLU(inplace=True)
          (3): Conv2d(244, 244, kernel_size=(3, 3), stride=(1, 1), padding=(1, 1), groups=244, bias=False)
          (4): BatchNorm2d(244, eps=1e-05, momentum=0.1, affine=True, track_running_stats=True)
          (5): Conv2d(244, 244, kernel_size=(1, 1), stride=(1, 1), bias=False)
          (6): BatchNorm2d(244, eps=1e-05, momentum=0.1, affine=True, track_running_stats=True)
          (7): ReLU(inplace=True)
        )
      )
      (5): InvertedResidual(
        (branch1): Sequential()
        (branch2): Sequential(
          (0): Conv2d(244, 244, kernel_size=(1, 1), stride=(1, 1), bias=False)
          (1): BatchNorm2d(244, eps=1e-05, momentum=0.1, affine=True, track_running_stats=True)
          (2): ReLU(inplace=True)
          (3): Conv2d(244, 244, kernel_size=(3, 3), stride=(1, 1), padding=(1, 1), groups=244, bias=False)
          (4): BatchNorm2d(244, eps=1e-05, momentum=0.1, affine=True, track_running_stats=True)
          (5): Conv2d(244, 244, kernel_size=(1, 1), stride=(1, 1), bias=False)
          (6): BatchNorm2d(244, eps=1e-05, momentum=0.1, affine=True, track_running_stats=True)
          (7): ReLU(inplace=True)
        )
      )
      (6): InvertedResidual(
        (branch1): Sequential()
        (branch2): Sequential(
          (0): Conv2d(244, 244, kernel_size=(1, 1), stride=(1, 1), bias=False)
          (1): BatchNorm2d(244, eps=1e-05, momentum=0.1, affine=True, track_running_stats=True)
          (2): ReLU(inplace=True)
          (3): Conv2d(244, 244, kernel_size=(3, 3), stride=(1, 1), padding=(1, 1), groups=244, bias=False)
          (4): BatchNorm2d(244, eps=1e-05, momentum=0.1, affine=True, track_running_stats=True)
          (5): Conv2d(244, 244, kernel_size=(1, 1), stride=(1, 1), bias=False)
          (6): BatchNorm2d(244, eps=1e-05, momentum=0.1, affine=True, track_running_stats=True)
          (7): ReLU(inplace=True)
        )
      )
      (7): InvertedResidual(
        (branch1): Sequential()
        (branch2): Sequential(
          (0): Conv2d(244, 244, kernel_size=(1, 1), stride=(1, 1), bias=False)
          (1): BatchNorm2d(244, eps=1e-05, momentum=0.1, affine=True, track_running_stats=True)
          (2): ReLU(inplace=True)
          (3): Conv2d(244, 244, kernel_size=(3, 3), stride=(1, 1), padding=(1, 1), groups=244, bias=False)
          (4): BatchNorm2d(244, eps=1e-05, momentum=0.1, affine=True, track_running_stats=True)
          (5): Conv2d(244, 244, kernel_size=(1, 1), stride=(1, 1), bias=False)
          (6): BatchNorm2d(244, eps=1e-05, momentum=0.1, affine=True, track_running_stats=True)
          (7): ReLU(inplace=True)
        )
      )
    )
    (stage4): Sequential(
      (0): InvertedResidual(
        (branch1): Sequential(
          (0): Conv2d(488, 488, kernel_size=(3, 3), stride=(2, 2), padding=(1, 1), groups=488, bias=False)
          (1): BatchNorm2d(488, eps=1e-05, momentum=0.1, affine=True, track_running_stats=True)
          (2): Conv2d(488, 488, kernel_size=(1, 1), stride=(1, 1), bias=False)
          (3): BatchNorm2d(488, eps=1e-05, momentum=0.1, affine=True, track_running_stats=True)
          (4): ReLU(inplace=True)
        )
        (branch2): Sequential(
          (0): Conv2d(488, 488, kernel_size=(1, 1), stride=(1, 1), bias=False)
          (1): BatchNorm2d(488, eps=1e-05, momentum=0.1, affine=True, track_running_stats=True)
          (2): ReLU(inplace=True)
          (3): Conv2d(488, 488, kernel_size=(3, 3), stride=(2, 2), padding=(1, 1), groups=488, bias=False)
          (4): BatchNorm2d(488, eps=1e-05, momentum=0.1, affine=True, track_running_stats=True)
          (5): Conv2d(488, 488, kernel_size=(1, 1), stride=(1, 1), bias=False)
          (6): BatchNorm2d(488, eps=1e-05, momentum=0.1, affine=True, track_running_stats=True)
          (7): ReLU(inplace=True)
        )
      )
      (1): InvertedResidual(
        (branch1): Sequential()
        (branch2): Sequential(
          (0): Conv2d(488, 488, kernel_size=(1, 1), stride=(1, 1), bias=False)
          (1): BatchNorm2d(488, eps=1e-05, momentum=0.1, affine=True, track_running_stats=True)
          (2): ReLU(inplace=True)
          (3): Conv2d(488, 488, kernel_size=(3, 3), stride=(1, 1), padding=(1, 1), groups=488, bias=False)
          (4): BatchNorm2d(488, eps=1e-05, momentum=0.1, affine=True, track_running_stats=True)
          (5): Conv2d(488, 488, kernel_size=(1, 1), stride=(1, 1), bias=False)
          (6): BatchNorm2d(488, eps=1e-05, momentum=0.1, affine=True, track_running_stats=True)
          (7): ReLU(inplace=True)
        )
      )
      (2): InvertedResidual(
        (branch1): Sequential()
        (branch2): Sequential(
          (0): Conv2d(488, 488, kernel_size=(1, 1), stride=(1, 1), bias=False)
          (1): BatchNorm2d(488, eps=1e-05, momentum=0.1, affine=True, track_running_stats=True)
          (2): ReLU(inplace=True)
          (3): Conv2d(488, 488, kernel_size=(3, 3), stride=(1, 1), padding=(1, 1), groups=488, bias=False)
          (4): BatchNorm2d(488, eps=1e-05, momentum=0.1, affine=True, track_running_stats=True)
          (5): Conv2d(488, 488, kernel_size=(1, 1), stride=(1, 1), bias=False)
          (6): BatchNorm2d(488, eps=1e-05, momentum=0.1, affine=True, track_running_stats=True)
          (7): ReLU(inplace=True)
        )
      )
      (3): InvertedResidual(
        (branch1): Sequential()
        (branch2): Sequential(
          (0): Conv2d(488, 488, kernel_size=(1, 1), stride=(1, 1), bias=False)
          (1): BatchNorm2d(488, eps=1e-05, momentum=0.1, affine=True, track_running_stats=True)
          (2): ReLU(inplace=True)
          (3): Conv2d(488, 488, kernel_size=(3, 3), stride=(1, 1), padding=(1, 1), groups=488, bias=False)
          (4): BatchNorm2d(488, eps=1e-05, momentum=0.1, affine=True, track_running_stats=True)
          (5): Conv2d(488, 488, kernel_size=(1, 1), stride=(1, 1), bias=False)
          (6): BatchNorm2d(488, eps=1e-05, momentum=0.1, affine=True, track_running_stats=True)
          (7): ReLU(inplace=True)
        )
      )
    )
    (conv5): Sequential(
      (0): Conv2d(976, 2048, kernel_size=(1, 1), stride=(1, 1), bias=False)
      (1): BatchNorm2d(2048, eps=1e-05, momentum=0.1, affine=True, track_running_stats=True)
      (2): ReLU(inplace=True)
    )
    (fc): Linear(in_features=2048, out_features=1000, bias=True)
  )
)
Fri Jun  2 12:10:52 2023 : initialize model with default settings
Fri Jun  2 12:10:52 2023 : trying to move the model to GPU
Fri Jun  2 12:10:54 2023 : model: SHUFFLENET(
  (net): ShuffleNetV2(
    (conv1): Sequential(
      (0): Conv2d(3, 24, kernel_size=(3, 3), stride=(2, 2), padding=(1, 1), bias=False)
      (1): BatchNorm2d(24, eps=1e-05, momentum=0.1, affine=True, track_running_stats=True)
      (2): ReLU(inplace=True)
    )
    (maxpool): MaxPool2d(kernel_size=3, stride=2, padding=1, dilation=1, ceil_mode=False)
    (stage2): Sequential(
      (0): InvertedResidual(
        (branch1): Sequential(
          (0): Conv2d(24, 24, kernel_size=(3, 3), stride=(2, 2), padding=(1, 1), groups=24, bias=False)
          (1): BatchNorm2d(24, eps=1e-05, momentum=0.1, affine=True, track_running_stats=True)
          (2): Conv2d(24, 122, kernel_size=(1, 1), stride=(1, 1), bias=False)
          (3): BatchNorm2d(122, eps=1e-05, momentum=0.1, affine=True, track_running_stats=True)
          (4): ReLU(inplace=True)
        )
        (branch2): Sequential(
          (0): Conv2d(24, 122, kernel_size=(1, 1), stride=(1, 1), bias=False)
          (1): BatchNorm2d(122, eps=1e-05, momentum=0.1, affine=True, track_running_stats=True)
          (2): ReLU(inplace=True)
          (3): Conv2d(122, 122, kernel_size=(3, 3), stride=(2, 2), padding=(1, 1), groups=122, bias=False)
          (4): BatchNorm2d(122, eps=1e-05, momentum=0.1, affine=True, track_running_stats=True)
          (5): Conv2d(122, 122, kernel_size=(1, 1), stride=(1, 1), bias=False)
          (6): BatchNorm2d(122, eps=1e-05, momentum=0.1, affine=True, track_running_stats=True)
          (7): ReLU(inplace=True)
        )
      )
      (1): InvertedResidual(
        (branch1): Sequential()
        (branch2): Sequential(
          (0): Conv2d(122, 122, kernel_size=(1, 1), stride=(1, 1), bias=False)
          (1): BatchNorm2d(122, eps=1e-05, momentum=0.1, affine=True, track_running_stats=True)
          (2): ReLU(inplace=True)
          (3): Conv2d(122, 122, kernel_size=(3, 3), stride=(1, 1), padding=(1, 1), groups=122, bias=False)
          (4): BatchNorm2d(122, eps=1e-05, momentum=0.1, affine=True, track_running_stats=True)
          (5): Conv2d(122, 122, kernel_size=(1, 1), stride=(1, 1), bias=False)
          (6): BatchNorm2d(122, eps=1e-05, momentum=0.1, affine=True, track_running_stats=True)
          (7): ReLU(inplace=True)
        )
      )
      (2): InvertedResidual(
        (branch1): Sequential()
        (branch2): Sequential(
          (0): Conv2d(122, 122, kernel_size=(1, 1), stride=(1, 1), bias=False)
          (1): BatchNorm2d(122, eps=1e-05, momentum=0.1, affine=True, track_running_stats=True)
          (2): ReLU(inplace=True)
          (3): Conv2d(122, 122, kernel_size=(3, 3), stride=(1, 1), padding=(1, 1), groups=122, bias=False)
          (4): BatchNorm2d(122, eps=1e-05, momentum=0.1, affine=True, track_running_stats=True)
          (5): Conv2d(122, 122, kernel_size=(1, 1), stride=(1, 1), bias=False)
          (6): BatchNorm2d(122, eps=1e-05, momentum=0.1, affine=True, track_running_stats=True)
          (7): ReLU(inplace=True)
        )
      )
      (3): InvertedResidual(
        (branch1): Sequential()
        (branch2): Sequential(
          (0): Conv2d(122, 122, kernel_size=(1, 1), stride=(1, 1), bias=False)
          (1): BatchNorm2d(122, eps=1e-05, momentum=0.1, affine=True, track_running_stats=True)
          (2): ReLU(inplace=True)
          (3): Conv2d(122, 122, kernel_size=(3, 3), stride=(1, 1), padding=(1, 1), groups=122, bias=False)
          (4): BatchNorm2d(122, eps=1e-05, momentum=0.1, affine=True, track_running_stats=True)
          (5): Conv2d(122, 122, kernel_size=(1, 1), stride=(1, 1), bias=False)
          (6): BatchNorm2d(122, eps=1e-05, momentum=0.1, affine=True, track_running_stats=True)
          (7): ReLU(inplace=True)
        )
      )
    )
    (stage3): Sequential(
      (0): InvertedResidual(
        (branch1): Sequential(
          (0): Conv2d(244, 244, kernel_size=(3, 3), stride=(2, 2), padding=(1, 1), groups=244, bias=False)
          (1): BatchNorm2d(244, eps=1e-05, momentum=0.1, affine=True, track_running_stats=True)
          (2): Conv2d(244, 244, kernel_size=(1, 1), stride=(1, 1), bias=False)
          (3): BatchNorm2d(244, eps=1e-05, momentum=0.1, affine=True, track_running_stats=True)
          (4): ReLU(inplace=True)
        )
        (branch2): Sequential(
          (0): Conv2d(244, 244, kernel_size=(1, 1), stride=(1, 1), bias=False)
          (1): BatchNorm2d(244, eps=1e-05, momentum=0.1, affine=True, track_running_stats=True)
          (2): ReLU(inplace=True)
          (3): Conv2d(244, 244, kernel_size=(3, 3), stride=(2, 2), padding=(1, 1), groups=244, bias=False)
          (4): BatchNorm2d(244, eps=1e-05, momentum=0.1, affine=True, track_running_stats=True)
          (5): Conv2d(244, 244, kernel_size=(1, 1), stride=(1, 1), bias=False)
          (6): BatchNorm2d(244, eps=1e-05, momentum=0.1, affine=True, track_running_stats=True)
          (7): ReLU(inplace=True)
        )
      )
      (1): InvertedResidual(
        (branch1): Sequential()
        (branch2): Sequential(
          (0): Conv2d(244, 244, kernel_size=(1, 1), stride=(1, 1), bias=False)
          (1): BatchNorm2d(244, eps=1e-05, momentum=0.1, affine=True, track_running_stats=True)
          (2): ReLU(inplace=True)
          (3): Conv2d(244, 244, kernel_size=(3, 3), stride=(1, 1), padding=(1, 1), groups=244, bias=False)
          (4): BatchNorm2d(244, eps=1e-05, momentum=0.1, affine=True, track_running_stats=True)
          (5): Conv2d(244, 244, kernel_size=(1, 1), stride=(1, 1), bias=False)
          (6): BatchNorm2d(244, eps=1e-05, momentum=0.1, affine=True, track_running_stats=True)
          (7): ReLU(inplace=True)
        )
      )
      (2): InvertedResidual(
        (branch1): Sequential()
        (branch2): Sequential(
          (0): Conv2d(244, 244, kernel_size=(1, 1), stride=(1, 1), bias=False)
          (1): BatchNorm2d(244, eps=1e-05, momentum=0.1, affine=True, track_running_stats=True)
          (2): ReLU(inplace=True)
          (3): Conv2d(244, 244, kernel_size=(3, 3), stride=(1, 1), padding=(1, 1), groups=244, bias=False)
          (4): BatchNorm2d(244, eps=1e-05, momentum=0.1, affine=True, track_running_stats=True)
          (5): Conv2d(244, 244, kernel_size=(1, 1), stride=(1, 1), bias=False)
          (6): BatchNorm2d(244, eps=1e-05, momentum=0.1, affine=True, track_running_stats=True)
          (7): ReLU(inplace=True)
        )
      )
      (3): InvertedResidual(
        (branch1): Sequential()
        (branch2): Sequential(
          (0): Conv2d(244, 244, kernel_size=(1, 1), stride=(1, 1), bias=False)
          (1): BatchNorm2d(244, eps=1e-05, momentum=0.1, affine=True, track_running_stats=True)
          (2): ReLU(inplace=True)
          (3): Conv2d(244, 244, kernel_size=(3, 3), stride=(1, 1), padding=(1, 1), groups=244, bias=False)
          (4): BatchNorm2d(244, eps=1e-05, momentum=0.1, affine=True, track_running_stats=True)
          (5): Conv2d(244, 244, kernel_size=(1, 1), stride=(1, 1), bias=False)
          (6): BatchNorm2d(244, eps=1e-05, momentum=0.1, affine=True, track_running_stats=True)
          (7): ReLU(inplace=True)
        )
      )
      (4): InvertedResidual(
        (branch1): Sequential()
        (branch2): Sequential(
          (0): Conv2d(244, 244, kernel_size=(1, 1), stride=(1, 1), bias=False)
          (1): BatchNorm2d(244, eps=1e-05, momentum=0.1, affine=True, track_running_stats=True)
          (2): ReLU(inplace=True)
          (3): Conv2d(244, 244, kernel_size=(3, 3), stride=(1, 1), padding=(1, 1), groups=244, bias=False)
          (4): BatchNorm2d(244, eps=1e-05, momentum=0.1, affine=True, track_running_stats=True)
          (5): Conv2d(244, 244, kernel_size=(1, 1), stride=(1, 1), bias=False)
          (6): BatchNorm2d(244, eps=1e-05, momentum=0.1, affine=True, track_running_stats=True)
          (7): ReLU(inplace=True)
        )
      )
      (5): InvertedResidual(
        (branch1): Sequential()
        (branch2): Sequential(
          (0): Conv2d(244, 244, kernel_size=(1, 1), stride=(1, 1), bias=False)
          (1): BatchNorm2d(244, eps=1e-05, momentum=0.1, affine=True, track_running_stats=True)
          (2): ReLU(inplace=True)
          (3): Conv2d(244, 244, kernel_size=(3, 3), stride=(1, 1), padding=(1, 1), groups=244, bias=False)
          (4): BatchNorm2d(244, eps=1e-05, momentum=0.1, affine=True, track_running_stats=True)
          (5): Conv2d(244, 244, kernel_size=(1, 1), stride=(1, 1), bias=False)
          (6): BatchNorm2d(244, eps=1e-05, momentum=0.1, affine=True, track_running_stats=True)
          (7): ReLU(inplace=True)
        )
      )
      (6): InvertedResidual(
        (branch1): Sequential()
        (branch2): Sequential(
          (0): Conv2d(244, 244, kernel_size=(1, 1), stride=(1, 1), bias=False)
          (1): BatchNorm2d(244, eps=1e-05, momentum=0.1, affine=True, track_running_stats=True)
          (2): ReLU(inplace=True)
          (3): Conv2d(244, 244, kernel_size=(3, 3), stride=(1, 1), padding=(1, 1), groups=244, bias=False)
          (4): BatchNorm2d(244, eps=1e-05, momentum=0.1, affine=True, track_running_stats=True)
          (5): Conv2d(244, 244, kernel_size=(1, 1), stride=(1, 1), bias=False)
          (6): BatchNorm2d(244, eps=1e-05, momentum=0.1, affine=True, track_running_stats=True)
          (7): ReLU(inplace=True)
        )
      )
      (7): InvertedResidual(
        (branch1): Sequential()
        (branch2): Sequential(
          (0): Conv2d(244, 244, kernel_size=(1, 1), stride=(1, 1), bias=False)
          (1): BatchNorm2d(244, eps=1e-05, momentum=0.1, affine=True, track_running_stats=True)
          (2): ReLU(inplace=True)
          (3): Conv2d(244, 244, kernel_size=(3, 3), stride=(1, 1), padding=(1, 1), groups=244, bias=False)
          (4): BatchNorm2d(244, eps=1e-05, momentum=0.1, affine=True, track_running_stats=True)
          (5): Conv2d(244, 244, kernel_size=(1, 1), stride=(1, 1), bias=False)
          (6): BatchNorm2d(244, eps=1e-05, momentum=0.1, affine=True, track_running_stats=True)
          (7): ReLU(inplace=True)
        )
      )
    )
    (stage4): Sequential(
      (0): InvertedResidual(
        (branch1): Sequential(
          (0): Conv2d(488, 488, kernel_size=(3, 3), stride=(2, 2), padding=(1, 1), groups=488, bias=False)
          (1): BatchNorm2d(488, eps=1e-05, momentum=0.1, affine=True, track_running_stats=True)
          (2): Conv2d(488, 488, kernel_size=(1, 1), stride=(1, 1), bias=False)
          (3): BatchNorm2d(488, eps=1e-05, momentum=0.1, affine=True, track_running_stats=True)
          (4): ReLU(inplace=True)
        )
        (branch2): Sequential(
          (0): Conv2d(488, 488, kernel_size=(1, 1), stride=(1, 1), bias=False)
          (1): BatchNorm2d(488, eps=1e-05, momentum=0.1, affine=True, track_running_stats=True)
          (2): ReLU(inplace=True)
          (3): Conv2d(488, 488, kernel_size=(3, 3), stride=(2, 2), padding=(1, 1), groups=488, bias=False)
          (4): BatchNorm2d(488, eps=1e-05, momentum=0.1, affine=True, track_running_stats=True)
          (5): Conv2d(488, 488, kernel_size=(1, 1), stride=(1, 1), bias=False)
          (6): BatchNorm2d(488, eps=1e-05, momentum=0.1, affine=True, track_running_stats=True)
          (7): ReLU(inplace=True)
        )
      )
      (1): InvertedResidual(
        (branch1): Sequential()
        (branch2): Sequential(
          (0): Conv2d(488, 488, kernel_size=(1, 1), stride=(1, 1), bias=False)
          (1): BatchNorm2d(488, eps=1e-05, momentum=0.1, affine=True, track_running_stats=True)
          (2): ReLU(inplace=True)
          (3): Conv2d(488, 488, kernel_size=(3, 3), stride=(1, 1), padding=(1, 1), groups=488, bias=False)
          (4): BatchNorm2d(488, eps=1e-05, momentum=0.1, affine=True, track_running_stats=True)
          (5): Conv2d(488, 488, kernel_size=(1, 1), stride=(1, 1), bias=False)
          (6): BatchNorm2d(488, eps=1e-05, momentum=0.1, affine=True, track_running_stats=True)
          (7): ReLU(inplace=True)
        )
      )
      (2): InvertedResidual(
        (branch1): Sequential()
        (branch2): Sequential(
          (0): Conv2d(488, 488, kernel_size=(1, 1), stride=(1, 1), bias=False)
          (1): BatchNorm2d(488, eps=1e-05, momentum=0.1, affine=True, track_running_stats=True)
          (2): ReLU(inplace=True)
          (3): Conv2d(488, 488, kernel_size=(3, 3), stride=(1, 1), padding=(1, 1), groups=488, bias=False)
          (4): BatchNorm2d(488, eps=1e-05, momentum=0.1, affine=True, track_running_stats=True)
          (5): Conv2d(488, 488, kernel_size=(1, 1), stride=(1, 1), bias=False)
          (6): BatchNorm2d(488, eps=1e-05, momentum=0.1, affine=True, track_running_stats=True)
          (7): ReLU(inplace=True)
        )
      )
      (3): InvertedResidual(
        (branch1): Sequential()
        (branch2): Sequential(
          (0): Conv2d(488, 488, kernel_size=(1, 1), stride=(1, 1), bias=False)
          (1): BatchNorm2d(488, eps=1e-05, momentum=0.1, affine=True, track_running_stats=True)
          (2): ReLU(inplace=True)
          (3): Conv2d(488, 488, kernel_size=(3, 3), stride=(1, 1), padding=(1, 1), groups=488, bias=False)
          (4): BatchNorm2d(488, eps=1e-05, momentum=0.1, affine=True, track_running_stats=True)
          (5): Conv2d(488, 488, kernel_size=(1, 1), stride=(1, 1), bias=False)
          (6): BatchNorm2d(488, eps=1e-05, momentum=0.1, affine=True, track_running_stats=True)
          (7): ReLU(inplace=True)
        )
      )
    )
    (conv5): Sequential(
      (0): Conv2d(976, 2048, kernel_size=(1, 1), stride=(1, 1), bias=False)
      (1): BatchNorm2d(2048, eps=1e-05, momentum=0.1, affine=True, track_running_stats=True)
      (2): ReLU(inplace=True)
    )
    (fc): Linear(in_features=2048, out_features=1000, bias=True)
  )
)
Fri Jun  2 12:10:54 2023 : torch.cuda.memory_allocated(): 29774336
Fri Jun  2 12:10:54 2023 : torch.cuda.memory_cached(): 35651584
Fri Jun  2 12:10:54 2023 : torch.cuda.synchronize(): None
Fri Jun  2 12:10:55 2023 : Worker on node 2: process started
Fri Jun  2 12:10:58 2023 : model: SHUFFLENET(
  (net): ShuffleNetV2(
    (conv1): Sequential(
      (0): Conv2d(3, 24, kernel_size=(3, 3), stride=(2, 2), padding=(1, 1), bias=False)
      (1): BatchNorm2d(24, eps=1e-05, momentum=0.1, affine=True, track_running_stats=True)
      (2): ReLU(inplace=True)
    )
    (maxpool): MaxPool2d(kernel_size=3, stride=2, padding=1, dilation=1, ceil_mode=False)
    (stage2): Sequential(
      (0): InvertedResidual(
        (branch1): Sequential(
          (0): Conv2d(24, 24, kernel_size=(3, 3), stride=(2, 2), padding=(1, 1), groups=24, bias=False)
          (1): BatchNorm2d(24, eps=1e-05, momentum=0.1, affine=True, track_running_stats=True)
          (2): Conv2d(24, 122, kernel_size=(1, 1), stride=(1, 1), bias=False)
          (3): BatchNorm2d(122, eps=1e-05, momentum=0.1, affine=True, track_running_stats=True)
          (4): ReLU(inplace=True)
        )
        (branch2): Sequential(
          (0): Conv2d(24, 122, kernel_size=(1, 1), stride=(1, 1), bias=False)
          (1): BatchNorm2d(122, eps=1e-05, momentum=0.1, affine=True, track_running_stats=True)
          (2): ReLU(inplace=True)
          (3): Conv2d(122, 122, kernel_size=(3, 3), stride=(2, 2), padding=(1, 1), groups=122, bias=False)
          (4): BatchNorm2d(122, eps=1e-05, momentum=0.1, affine=True, track_running_stats=True)
          (5): Conv2d(122, 122, kernel_size=(1, 1), stride=(1, 1), bias=False)
          (6): BatchNorm2d(122, eps=1e-05, momentum=0.1, affine=True, track_running_stats=True)
          (7): ReLU(inplace=True)
        )
      )
      (1): InvertedResidual(
        (branch1): Sequential()
        (branch2): Sequential(
          (0): Conv2d(122, 122, kernel_size=(1, 1), stride=(1, 1), bias=False)
          (1): BatchNorm2d(122, eps=1e-05, momentum=0.1, affine=True, track_running_stats=True)
          (2): ReLU(inplace=True)
          (3): Conv2d(122, 122, kernel_size=(3, 3), stride=(1, 1), padding=(1, 1), groups=122, bias=False)
          (4): BatchNorm2d(122, eps=1e-05, momentum=0.1, affine=True, track_running_stats=True)
          (5): Conv2d(122, 122, kernel_size=(1, 1), stride=(1, 1), bias=False)
          (6): BatchNorm2d(122, eps=1e-05, momentum=0.1, affine=True, track_running_stats=True)
          (7): ReLU(inplace=True)
        )
      )
      (2): InvertedResidual(
        (branch1): Sequential()
        (branch2): Sequential(
          (0): Conv2d(122, 122, kernel_size=(1, 1), stride=(1, 1), bias=False)
          (1): BatchNorm2d(122, eps=1e-05, momentum=0.1, affine=True, track_running_stats=True)
          (2): ReLU(inplace=True)
          (3): Conv2d(122, 122, kernel_size=(3, 3), stride=(1, 1), padding=(1, 1), groups=122, bias=False)
          (4): BatchNorm2d(122, eps=1e-05, momentum=0.1, affine=True, track_running_stats=True)
          (5): Conv2d(122, 122, kernel_size=(1, 1), stride=(1, 1), bias=False)
          (6): BatchNorm2d(122, eps=1e-05, momentum=0.1, affine=True, track_running_stats=True)
          (7): ReLU(inplace=True)
        )
      )
      (3): InvertedResidual(
        (branch1): Sequential()
        (branch2): Sequential(
          (0): Conv2d(122, 122, kernel_size=(1, 1), stride=(1, 1), bias=False)
          (1): BatchNorm2d(122, eps=1e-05, momentum=0.1, affine=True, track_running_stats=True)
          (2): ReLU(inplace=True)
          (3): Conv2d(122, 122, kernel_size=(3, 3), stride=(1, 1), padding=(1, 1), groups=122, bias=False)
          (4): BatchNorm2d(122, eps=1e-05, momentum=0.1, affine=True, track_running_stats=True)
          (5): Conv2d(122, 122, kernel_size=(1, 1), stride=(1, 1), bias=False)
          (6): BatchNorm2d(122, eps=1e-05, momentum=0.1, affine=True, track_running_stats=True)
          (7): ReLU(inplace=True)
        )
      )
    )
    (stage3): Sequential(
      (0): InvertedResidual(
        (branch1): Sequential(
          (0): Conv2d(244, 244, kernel_size=(3, 3), stride=(2, 2), padding=(1, 1), groups=244, bias=False)
          (1): BatchNorm2d(244, eps=1e-05, momentum=0.1, affine=True, track_running_stats=True)
          (2): Conv2d(244, 244, kernel_size=(1, 1), stride=(1, 1), bias=False)
          (3): BatchNorm2d(244, eps=1e-05, momentum=0.1, affine=True, track_running_stats=True)
          (4): ReLU(inplace=True)
        )
        (branch2): Sequential(
          (0): Conv2d(244, 244, kernel_size=(1, 1), stride=(1, 1), bias=False)
          (1): BatchNorm2d(244, eps=1e-05, momentum=0.1, affine=True, track_running_stats=True)
          (2): ReLU(inplace=True)
          (3): Conv2d(244, 244, kernel_size=(3, 3), stride=(2, 2), padding=(1, 1), groups=244, bias=False)
          (4): BatchNorm2d(244, eps=1e-05, momentum=0.1, affine=True, track_running_stats=True)
          (5): Conv2d(244, 244, kernel_size=(1, 1), stride=(1, 1), bias=False)
          (6): BatchNorm2d(244, eps=1e-05, momentum=0.1, affine=True, track_running_stats=True)
          (7): ReLU(inplace=True)
        )
      )
      (1): InvertedResidual(
        (branch1): Sequential()
        (branch2): Sequential(
          (0): Conv2d(244, 244, kernel_size=(1, 1), stride=(1, 1), bias=False)
          (1): BatchNorm2d(244, eps=1e-05, momentum=0.1, affine=True, track_running_stats=True)
          (2): ReLU(inplace=True)
          (3): Conv2d(244, 244, kernel_size=(3, 3), stride=(1, 1), padding=(1, 1), groups=244, bias=False)
          (4): BatchNorm2d(244, eps=1e-05, momentum=0.1, affine=True, track_running_stats=True)
          (5): Conv2d(244, 244, kernel_size=(1, 1), stride=(1, 1), bias=False)
          (6): BatchNorm2d(244, eps=1e-05, momentum=0.1, affine=True, track_running_stats=True)
          (7): ReLU(inplace=True)
        )
      )
      (2): InvertedResidual(
        (branch1): Sequential()
        (branch2): Sequential(
          (0): Conv2d(244, 244, kernel_size=(1, 1), stride=(1, 1), bias=False)
          (1): BatchNorm2d(244, eps=1e-05, momentum=0.1, affine=True, track_running_stats=True)
          (2): ReLU(inplace=True)
          (3): Conv2d(244, 244, kernel_size=(3, 3), stride=(1, 1), padding=(1, 1), groups=244, bias=False)
          (4): BatchNorm2d(244, eps=1e-05, momentum=0.1, affine=True, track_running_stats=True)
          (5): Conv2d(244, 244, kernel_size=(1, 1), stride=(1, 1), bias=False)
          (6): BatchNorm2d(244, eps=1e-05, momentum=0.1, affine=True, track_running_stats=True)
          (7): ReLU(inplace=True)
        )
      )
      (3): InvertedResidual(
        (branch1): Sequential()
        (branch2): Sequential(
          (0): Conv2d(244, 244, kernel_size=(1, 1), stride=(1, 1), bias=False)
          (1): BatchNorm2d(244, eps=1e-05, momentum=0.1, affine=True, track_running_stats=True)
          (2): ReLU(inplace=True)
          (3): Conv2d(244, 244, kernel_size=(3, 3), stride=(1, 1), padding=(1, 1), groups=244, bias=False)
          (4): BatchNorm2d(244, eps=1e-05, momentum=0.1, affine=True, track_running_stats=True)
          (5): Conv2d(244, 244, kernel_size=(1, 1), stride=(1, 1), bias=False)
          (6): BatchNorm2d(244, eps=1e-05, momentum=0.1, affine=True, track_running_stats=True)
          (7): ReLU(inplace=True)
        )
      )
      (4): InvertedResidual(
        (branch1): Sequential()
        (branch2): Sequential(
          (0): Conv2d(244, 244, kernel_size=(1, 1), stride=(1, 1), bias=False)
          (1): BatchNorm2d(244, eps=1e-05, momentum=0.1, affine=True, track_running_stats=True)
          (2): ReLU(inplace=True)
          (3): Conv2d(244, 244, kernel_size=(3, 3), stride=(1, 1), padding=(1, 1), groups=244, bias=False)
          (4): BatchNorm2d(244, eps=1e-05, momentum=0.1, affine=True, track_running_stats=True)
          (5): Conv2d(244, 244, kernel_size=(1, 1), stride=(1, 1), bias=False)
          (6): BatchNorm2d(244, eps=1e-05, momentum=0.1, affine=True, track_running_stats=True)
          (7): ReLU(inplace=True)
        )
      )
      (5): InvertedResidual(
        (branch1): Sequential()
        (branch2): Sequential(
          (0): Conv2d(244, 244, kernel_size=(1, 1), stride=(1, 1), bias=False)
          (1): BatchNorm2d(244, eps=1e-05, momentum=0.1, affine=True, track_running_stats=True)
          (2): ReLU(inplace=True)
          (3): Conv2d(244, 244, kernel_size=(3, 3), stride=(1, 1), padding=(1, 1), groups=244, bias=False)
          (4): BatchNorm2d(244, eps=1e-05, momentum=0.1, affine=True, track_running_stats=True)
          (5): Conv2d(244, 244, kernel_size=(1, 1), stride=(1, 1), bias=False)
          (6): BatchNorm2d(244, eps=1e-05, momentum=0.1, affine=True, track_running_stats=True)
          (7): ReLU(inplace=True)
        )
      )
      (6): InvertedResidual(
        (branch1): Sequential()
        (branch2): Sequential(
          (0): Conv2d(244, 244, kernel_size=(1, 1), stride=(1, 1), bias=False)
          (1): BatchNorm2d(244, eps=1e-05, momentum=0.1, affine=True, track_running_stats=True)
          (2): ReLU(inplace=True)
          (3): Conv2d(244, 244, kernel_size=(3, 3), stride=(1, 1), padding=(1, 1), groups=244, bias=False)
          (4): BatchNorm2d(244, eps=1e-05, momentum=0.1, affine=True, track_running_stats=True)
          (5): Conv2d(244, 244, kernel_size=(1, 1), stride=(1, 1), bias=False)
          (6): BatchNorm2d(244, eps=1e-05, momentum=0.1, affine=True, track_running_stats=True)
          (7): ReLU(inplace=True)
        )
      )
      (7): InvertedResidual(
        (branch1): Sequential()
        (branch2): Sequential(
          (0): Conv2d(244, 244, kernel_size=(1, 1), stride=(1, 1), bias=False)
          (1): BatchNorm2d(244, eps=1e-05, momentum=0.1, affine=True, track_running_stats=True)
          (2): ReLU(inplace=True)
          (3): Conv2d(244, 244, kernel_size=(3, 3), stride=(1, 1), padding=(1, 1), groups=244, bias=False)
          (4): BatchNorm2d(244, eps=1e-05, momentum=0.1, affine=True, track_running_stats=True)
          (5): Conv2d(244, 244, kernel_size=(1, 1), stride=(1, 1), bias=False)
          (6): BatchNorm2d(244, eps=1e-05, momentum=0.1, affine=True, track_running_stats=True)
          (7): ReLU(inplace=True)
        )
      )
    )
    (stage4): Sequential(
      (0): InvertedResidual(
        (branch1): Sequential(
          (0): Conv2d(488, 488, kernel_size=(3, 3), stride=(2, 2), padding=(1, 1), groups=488, bias=False)
          (1): BatchNorm2d(488, eps=1e-05, momentum=0.1, affine=True, track_running_stats=True)
          (2): Conv2d(488, 488, kernel_size=(1, 1), stride=(1, 1), bias=False)
          (3): BatchNorm2d(488, eps=1e-05, momentum=0.1, affine=True, track_running_stats=True)
          (4): ReLU(inplace=True)
        )
        (branch2): Sequential(
          (0): Conv2d(488, 488, kernel_size=(1, 1), stride=(1, 1), bias=False)
          (1): BatchNorm2d(488, eps=1e-05, momentum=0.1, affine=True, track_running_stats=True)
          (2): ReLU(inplace=True)
          (3): Conv2d(488, 488, kernel_size=(3, 3), stride=(2, 2), padding=(1, 1), groups=488, bias=False)
          (4): BatchNorm2d(488, eps=1e-05, momentum=0.1, affine=True, track_running_stats=True)
          (5): Conv2d(488, 488, kernel_size=(1, 1), stride=(1, 1), bias=False)
          (6): BatchNorm2d(488, eps=1e-05, momentum=0.1, affine=True, track_running_stats=True)
          (7): ReLU(inplace=True)
        )
      )
      (1): InvertedResidual(
        (branch1): Sequential()
        (branch2): Sequential(
          (0): Conv2d(488, 488, kernel_size=(1, 1), stride=(1, 1), bias=False)
          (1): BatchNorm2d(488, eps=1e-05, momentum=0.1, affine=True, track_running_stats=True)
          (2): ReLU(inplace=True)
          (3): Conv2d(488, 488, kernel_size=(3, 3), stride=(1, 1), padding=(1, 1), groups=488, bias=False)
          (4): BatchNorm2d(488, eps=1e-05, momentum=0.1, affine=True, track_running_stats=True)
          (5): Conv2d(488, 488, kernel_size=(1, 1), stride=(1, 1), bias=False)
          (6): BatchNorm2d(488, eps=1e-05, momentum=0.1, affine=True, track_running_stats=True)
          (7): ReLU(inplace=True)
        )
      )
      (2): InvertedResidual(
        (branch1): Sequential()
        (branch2): Sequential(
          (0): Conv2d(488, 488, kernel_size=(1, 1), stride=(1, 1), bias=False)
          (1): BatchNorm2d(488, eps=1e-05, momentum=0.1, affine=True, track_running_stats=True)
          (2): ReLU(inplace=True)
          (3): Conv2d(488, 488, kernel_size=(3, 3), stride=(1, 1), padding=(1, 1), groups=488, bias=False)
          (4): BatchNorm2d(488, eps=1e-05, momentum=0.1, affine=True, track_running_stats=True)
          (5): Conv2d(488, 488, kernel_size=(1, 1), stride=(1, 1), bias=False)
          (6): BatchNorm2d(488, eps=1e-05, momentum=0.1, affine=True, track_running_stats=True)
          (7): ReLU(inplace=True)
        )
      )
      (3): InvertedResidual(
        (branch1): Sequential()
        (branch2): Sequential(
          (0): Conv2d(488, 488, kernel_size=(1, 1), stride=(1, 1), bias=False)
          (1): BatchNorm2d(488, eps=1e-05, momentum=0.1, affine=True, track_running_stats=True)
          (2): ReLU(inplace=True)
          (3): Conv2d(488, 488, kernel_size=(3, 3), stride=(1, 1), padding=(1, 1), groups=488, bias=False)
          (4): BatchNorm2d(488, eps=1e-05, momentum=0.1, affine=True, track_running_stats=True)
          (5): Conv2d(488, 488, kernel_size=(1, 1), stride=(1, 1), bias=False)
          (6): BatchNorm2d(488, eps=1e-05, momentum=0.1, affine=True, track_running_stats=True)
          (7): ReLU(inplace=True)
        )
      )
    )
    (conv5): Sequential(
      (0): Conv2d(976, 2048, kernel_size=(1, 1), stride=(1, 1), bias=False)
      (1): BatchNorm2d(2048, eps=1e-05, momentum=0.1, affine=True, track_running_stats=True)
      (2): ReLU(inplace=True)
    )
    (fc): Linear(in_features=2048, out_features=1000, bias=True)
  )
)
Fri Jun  2 12:10:58 2023 : torch.cuda.memory_allocated(): 29774336
Fri Jun  2 12:10:58 2023 : torch.cuda.memory_cached(): 35651584
Fri Jun  2 12:10:58 2023 : torch.cuda.synchronize(): None
Fri Jun  2 12:10:58 2023 : model: SHUFFLENET(
  (net): ShuffleNetV2(
    (conv1): Sequential(
      (0): Conv2d(3, 24, kernel_size=(3, 3), stride=(2, 2), padding=(1, 1), bias=False)
      (1): BatchNorm2d(24, eps=1e-05, momentum=0.1, affine=True, track_running_stats=True)
      (2): ReLU(inplace=True)
    )
    (maxpool): MaxPool2d(kernel_size=3, stride=2, padding=1, dilation=1, ceil_mode=False)
    (stage2): Sequential(
      (0): InvertedResidual(
        (branch1): Sequential(
          (0): Conv2d(24, 24, kernel_size=(3, 3), stride=(2, 2), padding=(1, 1), groups=24, bias=False)
          (1): BatchNorm2d(24, eps=1e-05, momentum=0.1, affine=True, track_running_stats=True)
          (2): Conv2d(24, 122, kernel_size=(1, 1), stride=(1, 1), bias=False)
          (3): BatchNorm2d(122, eps=1e-05, momentum=0.1, affine=True, track_running_stats=True)
          (4): ReLU(inplace=True)
        )
        (branch2): Sequential(
          (0): Conv2d(24, 122, kernel_size=(1, 1), stride=(1, 1), bias=False)
          (1): BatchNorm2d(122, eps=1e-05, momentum=0.1, affine=True, track_running_stats=True)
          (2): ReLU(inplace=True)
          (3): Conv2d(122, 122, kernel_size=(3, 3), stride=(2, 2), padding=(1, 1), groups=122, bias=False)
          (4): BatchNorm2d(122, eps=1e-05, momentum=0.1, affine=True, track_running_stats=True)
          (5): Conv2d(122, 122, kernel_size=(1, 1), stride=(1, 1), bias=False)
          (6): BatchNorm2d(122, eps=1e-05, momentum=0.1, affine=True, track_running_stats=True)
          (7): ReLU(inplace=True)
        )
      )
      (1): InvertedResidual(
        (branch1): Sequential()
        (branch2): Sequential(
          (0): Conv2d(122, 122, kernel_size=(1, 1), stride=(1, 1), bias=False)
          (1): BatchNorm2d(122, eps=1e-05, momentum=0.1, affine=True, track_running_stats=True)
          (2): ReLU(inplace=True)
          (3): Conv2d(122, 122, kernel_size=(3, 3), stride=(1, 1), padding=(1, 1), groups=122, bias=False)
          (4): BatchNorm2d(122, eps=1e-05, momentum=0.1, affine=True, track_running_stats=True)
          (5): Conv2d(122, 122, kernel_size=(1, 1), stride=(1, 1), bias=False)
          (6): BatchNorm2d(122, eps=1e-05, momentum=0.1, affine=True, track_running_stats=True)
          (7): ReLU(inplace=True)
        )
      )
      (2): InvertedResidual(
        (branch1): Sequential()
        (branch2): Sequential(
          (0): Conv2d(122, 122, kernel_size=(1, 1), stride=(1, 1), bias=False)
          (1): BatchNorm2d(122, eps=1e-05, momentum=0.1, affine=True, track_running_stats=True)
          (2): ReLU(inplace=True)
          (3): Conv2d(122, 122, kernel_size=(3, 3), stride=(1, 1), padding=(1, 1), groups=122, bias=False)
          (4): BatchNorm2d(122, eps=1e-05, momentum=0.1, affine=True, track_running_stats=True)
          (5): Conv2d(122, 122, kernel_size=(1, 1), stride=(1, 1), bias=False)
          (6): BatchNorm2d(122, eps=1e-05, momentum=0.1, affine=True, track_running_stats=True)
          (7): ReLU(inplace=True)
        )
      )
      (3): InvertedResidual(
        (branch1): Sequential()
        (branch2): Sequential(
          (0): Conv2d(122, 122, kernel_size=(1, 1), stride=(1, 1), bias=False)
          (1): BatchNorm2d(122, eps=1e-05, momentum=0.1, affine=True, track_running_stats=True)
          (2): ReLU(inplace=True)
          (3): Conv2d(122, 122, kernel_size=(3, 3), stride=(1, 1), padding=(1, 1), groups=122, bias=False)
          (4): BatchNorm2d(122, eps=1e-05, momentum=0.1, affine=True, track_running_stats=True)
          (5): Conv2d(122, 122, kernel_size=(1, 1), stride=(1, 1), bias=False)
          (6): BatchNorm2d(122, eps=1e-05, momentum=0.1, affine=True, track_running_stats=True)
          (7): ReLU(inplace=True)
        )
      )
    )
    (stage3): Sequential(
      (0): InvertedResidual(
        (branch1): Sequential(
          (0): Conv2d(244, 244, kernel_size=(3, 3), stride=(2, 2), padding=(1, 1), groups=244, bias=False)
          (1): BatchNorm2d(244, eps=1e-05, momentum=0.1, affine=True, track_running_stats=True)
          (2): Conv2d(244, 244, kernel_size=(1, 1), stride=(1, 1), bias=False)
          (3): BatchNorm2d(244, eps=1e-05, momentum=0.1, affine=True, track_running_stats=True)
          (4): ReLU(inplace=True)
        )
        (branch2): Sequential(
          (0): Conv2d(244, 244, kernel_size=(1, 1), stride=(1, 1), bias=False)
          (1): BatchNorm2d(244, eps=1e-05, momentum=0.1, affine=True, track_running_stats=True)
          (2): ReLU(inplace=True)
          (3): Conv2d(244, 244, kernel_size=(3, 3), stride=(2, 2), padding=(1, 1), groups=244, bias=False)
          (4): BatchNorm2d(244, eps=1e-05, momentum=0.1, affine=True, track_running_stats=True)
          (5): Conv2d(244, 244, kernel_size=(1, 1), stride=(1, 1), bias=False)
          (6): BatchNorm2d(244, eps=1e-05, momentum=0.1, affine=True, track_running_stats=True)
          (7): ReLU(inplace=True)
        )
      )
      (1): InvertedResidual(
        (branch1): Sequential()
        (branch2): Sequential(
          (0): Conv2d(244, 244, kernel_size=(1, 1), stride=(1, 1), bias=False)
          (1): BatchNorm2d(244, eps=1e-05, momentum=0.1, affine=True, track_running_stats=True)
          (2): ReLU(inplace=True)
          (3): Conv2d(244, 244, kernel_size=(3, 3), stride=(1, 1), padding=(1, 1), groups=244, bias=False)
          (4): BatchNorm2d(244, eps=1e-05, momentum=0.1, affine=True, track_running_stats=True)
          (5): Conv2d(244, 244, kernel_size=(1, 1), stride=(1, 1), bias=False)
          (6): BatchNorm2d(244, eps=1e-05, momentum=0.1, affine=True, track_running_stats=True)
          (7): ReLU(inplace=True)
        )
      )
      (2): InvertedResidual(
        (branch1): Sequential()
        (branch2): Sequential(
          (0): Conv2d(244, 244, kernel_size=(1, 1), stride=(1, 1), bias=False)
          (1): BatchNorm2d(244, eps=1e-05, momentum=0.1, affine=True, track_running_stats=True)
          (2): ReLU(inplace=True)
          (3): Conv2d(244, 244, kernel_size=(3, 3), stride=(1, 1), padding=(1, 1), groups=244, bias=False)
          (4): BatchNorm2d(244, eps=1e-05, momentum=0.1, affine=True, track_running_stats=True)
          (5): Conv2d(244, 244, kernel_size=(1, 1), stride=(1, 1), bias=False)
          (6): BatchNorm2d(244, eps=1e-05, momentum=0.1, affine=True, track_running_stats=True)
          (7): ReLU(inplace=True)
        )
      )
      (3): InvertedResidual(
        (branch1): Sequential()
        (branch2): Sequential(
          (0): Conv2d(244, 244, kernel_size=(1, 1), stride=(1, 1), bias=False)
          (1): BatchNorm2d(244, eps=1e-05, momentum=0.1, affine=True, track_running_stats=True)
          (2): ReLU(inplace=True)
          (3): Conv2d(244, 244, kernel_size=(3, 3), stride=(1, 1), padding=(1, 1), groups=244, bias=False)
          (4): BatchNorm2d(244, eps=1e-05, momentum=0.1, affine=True, track_running_stats=True)
          (5): Conv2d(244, 244, kernel_size=(1, 1), stride=(1, 1), bias=False)
          (6): BatchNorm2d(244, eps=1e-05, momentum=0.1, affine=True, track_running_stats=True)
          (7): ReLU(inplace=True)
        )
      )
      (4): InvertedResidual(
        (branch1): Sequential()
        (branch2): Sequential(
          (0): Conv2d(244, 244, kernel_size=(1, 1), stride=(1, 1), bias=False)
          (1): BatchNorm2d(244, eps=1e-05, momentum=0.1, affine=True, track_running_stats=True)
          (2): ReLU(inplace=True)
          (3): Conv2d(244, 244, kernel_size=(3, 3), stride=(1, 1), padding=(1, 1), groups=244, bias=False)
          (4): BatchNorm2d(244, eps=1e-05, momentum=0.1, affine=True, track_running_stats=True)
          (5): Conv2d(244, 244, kernel_size=(1, 1), stride=(1, 1), bias=False)
          (6): BatchNorm2d(244, eps=1e-05, momentum=0.1, affine=True, track_running_stats=True)
          (7): ReLU(inplace=True)
        )
      )
      (5): InvertedResidual(
        (branch1): Sequential()
        (branch2): Sequential(
          (0): Conv2d(244, 244, kernel_size=(1, 1), stride=(1, 1), bias=False)
          (1): BatchNorm2d(244, eps=1e-05, momentum=0.1, affine=True, track_running_stats=True)
          (2): ReLU(inplace=True)
          (3): Conv2d(244, 244, kernel_size=(3, 3), stride=(1, 1), padding=(1, 1), groups=244, bias=False)
          (4): BatchNorm2d(244, eps=1e-05, momentum=0.1, affine=True, track_running_stats=True)
          (5): Conv2d(244, 244, kernel_size=(1, 1), stride=(1, 1), bias=False)
          (6): BatchNorm2d(244, eps=1e-05, momentum=0.1, affine=True, track_running_stats=True)
          (7): ReLU(inplace=True)
        )
      )
      (6): InvertedResidual(
        (branch1): Sequential()
        (branch2): Sequential(
          (0): Conv2d(244, 244, kernel_size=(1, 1), stride=(1, 1), bias=False)
          (1): BatchNorm2d(244, eps=1e-05, momentum=0.1, affine=True, track_running_stats=True)
          (2): ReLU(inplace=True)
          (3): Conv2d(244, 244, kernel_size=(3, 3), stride=(1, 1), padding=(1, 1), groups=244, bias=False)
          (4): BatchNorm2d(244, eps=1e-05, momentum=0.1, affine=True, track_running_stats=True)
          (5): Conv2d(244, 244, kernel_size=(1, 1), stride=(1, 1), bias=False)
          (6): BatchNorm2d(244, eps=1e-05, momentum=0.1, affine=True, track_running_stats=True)
          (7): ReLU(inplace=True)
        )
      )
      (7): InvertedResidual(
        (branch1): Sequential()
        (branch2): Sequential(
          (0): Conv2d(244, 244, kernel_size=(1, 1), stride=(1, 1), bias=False)
          (1): BatchNorm2d(244, eps=1e-05, momentum=0.1, affine=True, track_running_stats=True)
          (2): ReLU(inplace=True)
          (3): Conv2d(244, 244, kernel_size=(3, 3), stride=(1, 1), padding=(1, 1), groups=244, bias=False)
          (4): BatchNorm2d(244, eps=1e-05, momentum=0.1, affine=True, track_running_stats=True)
          (5): Conv2d(244, 244, kernel_size=(1, 1), stride=(1, 1), bias=False)
          (6): BatchNorm2d(244, eps=1e-05, momentum=0.1, affine=True, track_running_stats=True)
          (7): ReLU(inplace=True)
        )
      )
    )
    (stage4): Sequential(
      (0): InvertedResidual(
        (branch1): Sequential(
          (0): Conv2d(488, 488, kernel_size=(3, 3), stride=(2, 2), padding=(1, 1), groups=488, bias=False)
          (1): BatchNorm2d(488, eps=1e-05, momentum=0.1, affine=True, track_running_stats=True)
          (2): Conv2d(488, 488, kernel_size=(1, 1), stride=(1, 1), bias=False)
          (3): BatchNorm2d(488, eps=1e-05, momentum=0.1, affine=True, track_running_stats=True)
          (4): ReLU(inplace=True)
        )
        (branch2): Sequential(
          (0): Conv2d(488, 488, kernel_size=(1, 1), stride=(1, 1), bias=False)
          (1): BatchNorm2d(488, eps=1e-05, momentum=0.1, affine=True, track_running_stats=True)
          (2): ReLU(inplace=True)
          (3): Conv2d(488, 488, kernel_size=(3, 3), stride=(2, 2), padding=(1, 1), groups=488, bias=False)
          (4): BatchNorm2d(488, eps=1e-05, momentum=0.1, affine=True, track_running_stats=True)
          (5): Conv2d(488, 488, kernel_size=(1, 1), stride=(1, 1), bias=False)
          (6): BatchNorm2d(488, eps=1e-05, momentum=0.1, affine=True, track_running_stats=True)
          (7): ReLU(inplace=True)
        )
      )
      (1): InvertedResidual(
        (branch1): Sequential()
        (branch2): Sequential(
          (0): Conv2d(488, 488, kernel_size=(1, 1), stride=(1, 1), bias=False)
          (1): BatchNorm2d(488, eps=1e-05, momentum=0.1, affine=True, track_running_stats=True)
          (2): ReLU(inplace=True)
          (3): Conv2d(488, 488, kernel_size=(3, 3), stride=(1, 1), padding=(1, 1), groups=488, bias=False)
          (4): BatchNorm2d(488, eps=1e-05, momentum=0.1, affine=True, track_running_stats=True)
          (5): Conv2d(488, 488, kernel_size=(1, 1), stride=(1, 1), bias=False)
          (6): BatchNorm2d(488, eps=1e-05, momentum=0.1, affine=True, track_running_stats=True)
          (7): ReLU(inplace=True)
        )
      )
      (2): InvertedResidual(
        (branch1): Sequential()
        (branch2): Sequential(
          (0): Conv2d(488, 488, kernel_size=(1, 1), stride=(1, 1), bias=False)
          (1): BatchNorm2d(488, eps=1e-05, momentum=0.1, affine=True, track_running_stats=True)
          (2): ReLU(inplace=True)
          (3): Conv2d(488, 488, kernel_size=(3, 3), stride=(1, 1), padding=(1, 1), groups=488, bias=False)
          (4): BatchNorm2d(488, eps=1e-05, momentum=0.1, affine=True, track_running_stats=True)
          (5): Conv2d(488, 488, kernel_size=(1, 1), stride=(1, 1), bias=False)
          (6): BatchNorm2d(488, eps=1e-05, momentum=0.1, affine=True, track_running_stats=True)
          (7): ReLU(inplace=True)
        )
      )
      (3): InvertedResidual(
        (branch1): Sequential()
        (branch2): Sequential(
          (0): Conv2d(488, 488, kernel_size=(1, 1), stride=(1, 1), bias=False)
          (1): BatchNorm2d(488, eps=1e-05, momentum=0.1, affine=True, track_running_stats=True)
          (2): ReLU(inplace=True)
          (3): Conv2d(488, 488, kernel_size=(3, 3), stride=(1, 1), padding=(1, 1), groups=488, bias=False)
          (4): BatchNorm2d(488, eps=1e-05, momentum=0.1, affine=True, track_running_stats=True)
          (5): Conv2d(488, 488, kernel_size=(1, 1), stride=(1, 1), bias=False)
          (6): BatchNorm2d(488, eps=1e-05, momentum=0.1, affine=True, track_running_stats=True)
          (7): ReLU(inplace=True)
        )
      )
    )
    (conv5): Sequential(
      (0): Conv2d(976, 2048, kernel_size=(1, 1), stride=(1, 1), bias=False)
      (1): BatchNorm2d(2048, eps=1e-05, momentum=0.1, affine=True, track_running_stats=True)
      (2): ReLU(inplace=True)
    )
    (fc): Linear(in_features=2048, out_features=1000, bias=True)
  )
)
Fri Jun  2 12:10:58 2023 : torch.cuda.memory_allocated(): 29774336
Fri Jun  2 12:10:58 2023 : torch.cuda.memory_cached(): 35651584
Fri Jun  2 12:10:58 2023 : torch.cuda.synchronize(): None
Fri Jun  2 12:10:59 2023 : Worker on node 1: process started
Fri Jun  2 12:10:59 2023 : Server data preparation
Fri Jun  2 12:10:59 2023 : Prepared the dataloaders
…
