…
Sat Jun  3 02:04:00 2023 : Assigning worker to GPU 2
Sat Jun  3 02:04:00 2023 : Assigning worker to GPU 1
Group initialized? True
Sat Jun  3 02:04:00 2023 : Master_node: mauao
Sat Jun  3 02:04:00 2023 : Assigning worker to GPU 0
Rank 1: Completed store-based barrier for key:store_based_barrier_key:1 with 5 nodes.
Sat Jun  3 02:04:00 2023 : Assigning worker to GPU 1
Rank 3: Completed store-based barrier for key:store_based_barrier_key:1 with 5 nodes.
Sat Jun  3 02:04:00 2023 : Assigning worker to GPU 0
Preparing model .. Initializing
SHUFFLENET(
  (net): ShuffleNetV2(
    (conv1): Sequential(
      (0): Conv2d(3, 24, kernel_size=(3, 3), stride=(2, 2), padding=(1, 1), bias=False)
      (1): BatchNorm2d(24, eps=1e-05, momentum=0.1, affine=True, track_running_stats=True)
      (2): ReLU(inplace=True)
    )
    (maxpool): MaxPool2d(kernel_size=3, stride=2, padding=1, dilation=1, ceil_mode=False)
    (stage2): Sequential(
      (0): InvertedResidual(
        (branch1): Sequential(
          (0): Conv2d(24, 24, kernel_size=(3, 3), stride=(2, 2), padding=(1, 1), groups=24, bias=False)
          (1): BatchNorm2d(24, eps=1e-05, momentum=0.1, affine=True, track_running_stats=True)
          (2): Conv2d(24, 122, kernel_size=(1, 1), stride=(1, 1), bias=False)
          (3): BatchNorm2d(122, eps=1e-05, momentum=0.1, affine=True, track_running_stats=True)
          (4): ReLU(inplace=True)
        )
        (branch2): Sequential(
          (0): Conv2d(24, 122, kernel_size=(1, 1), stride=(1, 1), bias=False)
          (1): BatchNorm2d(122, eps=1e-05, momentum=0.1, affine=True, track_running_stats=True)
          (2): ReLU(inplace=True)
          (3): Conv2d(122, 122, kernel_size=(3, 3), stride=(2, 2), padding=(1, 1), groups=122, bias=False)
          (4): BatchNorm2d(122, eps=1e-05, momentum=0.1, affine=True, track_running_stats=True)
          (5): Conv2d(122, 122, kernel_size=(1, 1), stride=(1, 1), bias=False)
          (6): BatchNorm2d(122, eps=1e-05, momentum=0.1, affine=True, track_running_stats=True)
          (7): ReLU(inplace=True)
        )
      )
      (1): InvertedResidual(
        (branch1): Sequential()
        (branch2): Sequential(
          (0): Conv2d(122, 122, kernel_size=(1, 1), stride=(1, 1), bias=False)
          (1): BatchNorm2d(122, eps=1e-05, momentum=0.1, affine=True, track_running_stats=True)
          (2): ReLU(inplace=True)
          (3): Conv2d(122, 122, kernel_size=(3, 3), stride=(1, 1), padding=(1, 1), groups=122, bias=False)
          (4): BatchNorm2d(122, eps=1e-05, momentum=0.1, affine=True, track_running_stats=True)
          (5): Conv2d(122, 122, kernel_size=(1, 1), stride=(1, 1), bias=False)
          (6): BatchNorm2d(122, eps=1e-05, momentum=0.1, affine=True, track_running_stats=True)
          (7): ReLU(inplace=True)
        )
      )
      (2): InvertedResidual(
        (branch1): Sequential()
        (branch2): Sequential(
          (0): Conv2d(122, 122, kernel_size=(1, 1), stride=(1, 1), bias=False)
          (1): BatchNorm2d(122, eps=1e-05, momentum=0.1, affine=True, track_running_stats=True)
          (2): ReLU(inplace=True)
          (3): Conv2d(122, 122, kernel_size=(3, 3), stride=(1, 1), padding=(1, 1), groups=122, bias=False)
          (4): BatchNorm2d(122, eps=1e-05, momentum=0.1, affine=True, track_running_stats=True)
          (5): Conv2d(122, 122, kernel_size=(1, 1), stride=(1, 1), bias=False)
          (6): BatchNorm2d(122, eps=1e-05, momentum=0.1, affine=True, track_running_stats=True)
          (7): ReLU(inplace=True)
        )
      )
      (3): InvertedResidual(
        (branch1): Sequential()
        (branch2): Sequential(
          (0): Conv2d(122, 122, kernel_size=(1, 1), stride=(1, 1), bias=False)
          (1): BatchNorm2d(122, eps=1e-05, momentum=0.1, affine=True, track_running_stats=True)
          (2): ReLU(inplace=True)
          (3): Conv2d(122, 122, kernel_size=(3, 3), stride=(1, 1), padding=(1, 1), groups=122, bias=False)
          (4): BatchNorm2d(122, eps=1e-05, momentum=0.1, affine=True, track_running_stats=True)
          (5): Conv2d(122, 122, kernel_size=(1, 1), stride=(1, 1), bias=False)
          (6): BatchNorm2d(122, eps=1e-05, momentum=0.1, affine=True, track_running_stats=True)
          (7): ReLU(inplace=True)
        )
      )
    )
    (stage3): Sequential(
      (0): InvertedResidual(
        (branch1): Sequential(
          (0): Conv2d(244, 244, kernel_size=(3, 3), stride=(2, 2), padding=(1, 1), groups=244, bias=False)
          (1): BatchNorm2d(244, eps=1e-05, momentum=0.1, affine=True, track_running_stats=True)
          (2): Conv2d(244, 244, kernel_size=(1, 1), stride=(1, 1), bias=False)
          (3): BatchNorm2d(244, eps=1e-05, momentum=0.1, affine=True, track_running_stats=True)
          (4): ReLU(inplace=True)
        )
        (branch2): Sequential(
          (0): Conv2d(244, 244, kernel_size=(1, 1), stride=(1, 1), bias=False)
          (1): BatchNorm2d(244, eps=1e-05, momentum=0.1, affine=True, track_running_stats=True)
          (2): ReLU(inplace=True)
          (3): Conv2d(244, 244, kernel_size=(3, 3), stride=(2, 2), padding=(1, 1), groups=244, bias=False)
          (4): BatchNorm2d(244, eps=1e-05, momentum=0.1, affine=True, track_running_stats=True)
          (5): Conv2d(244, 244, kernel_size=(1, 1), stride=(1, 1), bias=False)
          (6): BatchNorm2d(244, eps=1e-05, momentum=0.1, affine=True, track_running_stats=True)
          (7): ReLU(inplace=True)
        )
      )
      (1): InvertedResidual(
        (branch1): Sequential()
        (branch2): Sequential(
          (0): Conv2d(244, 244, kernel_size=(1, 1), stride=(1, 1), bias=False)
          (1): BatchNorm2d(244, eps=1e-05, momentum=0.1, affine=True, track_running_stats=True)
          (2): ReLU(inplace=True)
          (3): Conv2d(244, 244, kernel_size=(3, 3), stride=(1, 1), padding=(1, 1), groups=244, bias=False)
          (4): BatchNorm2d(244, eps=1e-05, momentum=0.1, affine=True, track_running_stats=True)
          (5): Conv2d(244, 244, kernel_size=(1, 1), stride=(1, 1), bias=False)
          (6): BatchNorm2d(244, eps=1e-05, momentum=0.1, affine=True, track_running_stats=True)
          (7): ReLU(inplace=True)
        )
      )
      (2): InvertedResidual(
        (branch1): Sequential()
        (branch2): Sequential(
          (0): Conv2d(244, 244, kernel_size=(1, 1), stride=(1, 1), bias=False)
          (1): BatchNorm2d(244, eps=1e-05, momentum=0.1, affine=True, track_running_stats=True)
          (2): ReLU(inplace=True)
          (3): Conv2d(244, 244, kernel_size=(3, 3), stride=(1, 1), padding=(1, 1), groups=244, bias=False)
          (4): BatchNorm2d(244, eps=1e-05, momentum=0.1, affine=True, track_running_stats=True)
          (5): Conv2d(244, 244, kernel_size=(1, 1), stride=(1, 1), bias=False)
          (6): BatchNorm2d(244, eps=1e-05, momentum=0.1, affine=True, track_running_stats=True)
          (7): ReLU(inplace=True)
        )
      )
      (3): InvertedResidual(
        (branch1): Sequential()
        (branch2): Sequential(
          (0): Conv2d(244, 244, kernel_size=(1, 1), stride=(1, 1), bias=False)
          (1): BatchNorm2d(244, eps=1e-05, momentum=0.1, affine=True, track_running_stats=True)
          (2): ReLU(inplace=True)
          (3): Conv2d(244, 244, kernel_size=(3, 3), stride=(1, 1), padding=(1, 1), groups=244, bias=False)
          (4): BatchNorm2d(244, eps=1e-05, momentum=0.1, affine=True, track_running_stats=True)
          (5): Conv2d(244, 244, kernel_size=(1, 1), stride=(1, 1), bias=False)
          (6): BatchNorm2d(244, eps=1e-05, momentum=0.1, affine=True, track_running_stats=True)
          (7): ReLU(inplace=True)
        )
      )
      (4): InvertedResidual(
        (branch1): Sequential()
        (branch2): Sequential(
          (0): Conv2d(244, 244, kernel_size=(1, 1), stride=(1, 1), bias=False)
          (1): BatchNorm2d(244, eps=1e-05, momentum=0.1, affine=True, track_running_stats=True)
          (2): ReLU(inplace=True)
          (3): Conv2d(244, 244, kernel_size=(3, 3), stride=(1, 1), padding=(1, 1), groups=244, bias=False)
          (4): BatchNorm2d(244, eps=1e-05, momentum=0.1, affine=True, track_running_stats=True)
          (5): Conv2d(244, 244, kernel_size=(1, 1), stride=(1, 1), bias=False)
          (6): BatchNorm2d(244, eps=1e-05, momentum=0.1, affine=True, track_running_stats=True)
          (7): ReLU(inplace=True)
        )
      )
      (5): InvertedResidual(
        (branch1): Sequential()
        (branch2): Sequential(
          (0): Conv2d(244, 244, kernel_size=(1, 1), stride=(1, 1), bias=False)
          (1): BatchNorm2d(244, eps=1e-05, momentum=0.1, affine=True, track_running_stats=True)
          (2): ReLU(inplace=True)
          (3): Conv2d(244, 244, kernel_size=(3, 3), stride=(1, 1), padding=(1, 1), groups=244, bias=False)
          (4): BatchNorm2d(244, eps=1e-05, momentum=0.1, affine=True, track_running_stats=True)
          (5): Conv2d(244, 244, kernel_size=(1, 1), stride=(1, 1), bias=False)
          (6): BatchNorm2d(244, eps=1e-05, momentum=0.1, affine=True, track_running_stats=True)
          (7): ReLU(inplace=True)
        )
      )
      (6): InvertedResidual(
        (branch1): Sequential()
        (branch2): Sequential(
          (0): Conv2d(244, 244, kernel_size=(1, 1), stride=(1, 1), bias=False)
          (1): BatchNorm2d(244, eps=1e-05, momentum=0.1, affine=True, track_running_stats=True)
          (2): ReLU(inplace=True)
          (3): Conv2d(244, 244, kernel_size=(3, 3), stride=(1, 1), padding=(1, 1), groups=244, bias=False)
          (4): BatchNorm2d(244, eps=1e-05, momentum=0.1, affine=True, track_running_stats=True)
          (5): Conv2d(244, 244, kernel_size=(1, 1), stride=(1, 1), bias=False)
          (6): BatchNorm2d(244, eps=1e-05, momentum=0.1, affine=True, track_running_stats=True)
          (7): ReLU(inplace=True)
        )
      )
      (7): InvertedResidual(
        (branch1): Sequential()
        (branch2): Sequential(
          (0): Conv2d(244, 244, kernel_size=(1, 1), stride=(1, 1), bias=False)
          (1): BatchNorm2d(244, eps=1e-05, momentum=0.1, affine=True, track_running_stats=True)
          (2): ReLU(inplace=True)
          (3): Conv2d(244, 244, kernel_size=(3, 3), stride=(1, 1), padding=(1, 1), groups=244, bias=False)
          (4): BatchNorm2d(244, eps=1e-05, momentum=0.1, affine=True, track_running_stats=True)
          (5): Conv2d(244, 244, kernel_size=(1, 1), stride=(1, 1), bias=False)
          (6): BatchNorm2d(244, eps=1e-05, momentum=0.1, affine=True, track_running_stats=True)
          (7): ReLU(inplace=True)
        )
      )
    )
    (stage4): Sequential(
      (0): InvertedResidual(
        (branch1): Sequential(
          (0): Conv2d(488, 488, kernel_size=(3, 3), stride=(2, 2), padding=(1, 1), groups=488, bias=False)
          (1): BatchNorm2d(488, eps=1e-05, momentum=0.1, affine=True, track_running_stats=True)
          (2): Conv2d(488, 488, kernel_size=(1, 1), stride=(1, 1), bias=False)
          (3): BatchNorm2d(488, eps=1e-05, momentum=0.1, affine=True, track_running_stats=True)
          (4): ReLU(inplace=True)
        )
        (branch2): Sequential(
          (0): Conv2d(488, 488, kernel_size=(1, 1), stride=(1, 1), bias=False)
          (1): BatchNorm2d(488, eps=1e-05, momentum=0.1, affine=True, track_running_stats=True)
          (2): ReLU(inplace=True)
          (3): Conv2d(488, 488, kernel_size=(3, 3), stride=(2, 2), padding=(1, 1), groups=488, bias=False)
          (4): BatchNorm2d(488, eps=1e-05, momentum=0.1, affine=True, track_running_stats=True)
          (5): Conv2d(488, 488, kernel_size=(1, 1), stride=(1, 1), bias=False)
          (6): BatchNorm2d(488, eps=1e-05, momentum=0.1, affine=True, track_running_stats=True)
          (7): ReLU(inplace=True)
        )
      )
      (1): InvertedResidual(
        (branch1): Sequential()
        (branch2): Sequential(
          (0): Conv2d(488, 488, kernel_size=(1, 1), stride=(1, 1), bias=False)
          (1): BatchNorm2d(488, eps=1e-05, momentum=0.1, affine=True, track_running_stats=True)
          (2): ReLU(inplace=True)
          (3): Conv2d(488, 488, kernel_size=(3, 3), stride=(1, 1), padding=(1, 1), groups=488, bias=False)
          (4): BatchNorm2d(488, eps=1e-05, momentum=0.1, affine=True, track_running_stats=True)
          (5): Conv2d(488, 488, kernel_size=(1, 1), stride=(1, 1), bias=False)
          (6): BatchNorm2d(488, eps=1e-05, momentum=0.1, affine=True, track_running_stats=True)
          (7): ReLU(inplace=True)
        )
      )
      (2): InvertedResidual(
        (branch1): Sequential()
        (branch2): Sequential(
          (0): Conv2d(488, 488, kernel_size=(1, 1), stride=(1, 1), bias=False)
          (1): BatchNorm2d(488, eps=1e-05, momentum=0.1, affine=True, track_running_stats=True)
          (2): ReLU(inplace=True)
          (3): Conv2d(488, 488, kernel_size=(3, 3), stride=(1, 1), padding=(1, 1), groups=488, bias=False)
          (4): BatchNorm2d(488, eps=1e-05, momentum=0.1, affine=True, track_running_stats=True)
          (5): Conv2d(488, 488, kernel_size=(1, 1), stride=(1, 1), bias=False)
          (6): BatchNorm2d(488, eps=1e-05, momentum=0.1, affine=True, track_running_stats=True)
          (7): ReLU(inplace=True)
        )
      )
      (3): InvertedResidual(
        (branch1): Sequential()
        (branch2): Sequential(
          (0): Conv2d(488, 488, kernel_size=(1, 1), stride=(1, 1), bias=False)
          (1): BatchNorm2d(488, eps=1e-05, momentum=0.1, affine=True, track_running_stats=True)
          (2): ReLU(inplace=True)
          (3): Conv2d(488, 488, kernel_size=(3, 3), stride=(1, 1), padding=(1, 1), groups=488, bias=False)
          (4): BatchNorm2d(488, eps=1e-05, momentum=0.1, affine=True, track_running_stats=True)
          (5): Conv2d(488, 488, kernel_size=(1, 1), stride=(1, 1), bias=False)
          (6): BatchNorm2d(488, eps=1e-05, momentum=0.1, affine=True, track_running_stats=True)
          (7): ReLU(inplace=True)
        )
      )
    )
    (conv5): Sequential(
      (0): Conv2d(976, 2048, kernel_size=(1, 1), stride=(1, 1), bias=False)
      (1): BatchNorm2d(2048, eps=1e-05, momentum=0.1, affine=True, track_running_stats=True)
      (2): ReLU(inplace=True)
    )
    (fc): Linear(in_features=2048, out_features=1000, bias=True)
  )
)
Sat Jun  3 02:04:01 2023 : initialize model with default settings
Sat Jun  3 02:04:01 2023 : trying to move the model to GPU
Preparing model .. Initializing
SHUFFLENET(
  (net): ShuffleNetV2(
    (conv1): Sequential(
      (0): Conv2d(3, 24, kernel_size=(3, 3), stride=(2, 2), padding=(1, 1), bias=False)
      (1): BatchNorm2d(24, eps=1e-05, momentum=0.1, affine=True, track_running_stats=True)
      (2): ReLU(inplace=True)
    )
    (maxpool): MaxPool2d(kernel_size=3, stride=2, padding=1, dilation=1, ceil_mode=False)
    (stage2): Sequential(
      (0): InvertedResidual(
        (branch1): Sequential(
          (0): Conv2d(24, 24, kernel_size=(3, 3), stride=(2, 2), padding=(1, 1), groups=24, bias=False)
          (1): BatchNorm2d(24, eps=1e-05, momentum=0.1, affine=True, track_running_stats=True)
          (2): Conv2d(24, 122, kernel_size=(1, 1), stride=(1, 1), bias=False)
          (3): BatchNorm2d(122, eps=1e-05, momentum=0.1, affine=True, track_running_stats=True)
          (4): ReLU(inplace=True)
        )
        (branch2): Sequential(
          (0): Conv2d(24, 122, kernel_size=(1, 1), stride=(1, 1), bias=False)
          (1): BatchNorm2d(122, eps=1e-05, momentum=0.1, affine=True, track_running_stats=True)
          (2): ReLU(inplace=True)
          (3): Conv2d(122, 122, kernel_size=(3, 3), stride=(2, 2), padding=(1, 1), groups=122, bias=False)
          (4): BatchNorm2d(122, eps=1e-05, momentum=0.1, affine=True, track_running_stats=True)
          (5): Conv2d(122, 122, kernel_size=(1, 1), stride=(1, 1), bias=False)
          (6): BatchNorm2d(122, eps=1e-05, momentum=0.1, affine=True, track_running_stats=True)
          (7): ReLU(inplace=True)
        )
      )
      (1): InvertedResidual(
        (branch1): Sequential()
        (branch2): Sequential(
          (0): Conv2d(122, 122, kernel_size=(1, 1), stride=(1, 1), bias=False)
          (1): BatchNorm2d(122, eps=1e-05, momentum=0.1, affine=True, track_running_stats=True)
          (2): ReLU(inplace=True)
          (3): Conv2d(122, 122, kernel_size=(3, 3), stride=(1, 1), padding=(1, 1), groups=122, bias=False)
          (4): BatchNorm2d(122, eps=1e-05, momentum=0.1, affine=True, track_running_stats=True)
          (5): Conv2d(122, 122, kernel_size=(1, 1), stride=(1, 1), bias=False)
          (6): BatchNorm2d(122, eps=1e-05, momentum=0.1, affine=True, track_running_stats=True)
          (7): ReLU(inplace=True)
        )
      )
      (2): InvertedResidual(
        (branch1): Sequential()
        (branch2): Sequential(
          (0): Conv2d(122, 122, kernel_size=(1, 1), stride=(1, 1), bias=False)
          (1): BatchNorm2d(122, eps=1e-05, momentum=0.1, affine=True, track_running_stats=True)
          (2): ReLU(inplace=True)
          (3): Conv2d(122, 122, kernel_size=(3, 3), stride=(1, 1), padding=(1, 1), groups=122, bias=False)
          (4): BatchNorm2d(122, eps=1e-05, momentum=0.1, affine=True, track_running_stats=True)
          (5): Conv2d(122, 122, kernel_size=(1, 1), stride=(1, 1), bias=False)
          (6): BatchNorm2d(122, eps=1e-05, momentum=0.1, affine=True, track_running_stats=True)
          (7): ReLU(inplace=True)
        )
      )
      (3): InvertedResidual(
        (branch1): Sequential()
        (branch2): Sequential(
          (0): Conv2d(122, 122, kernel_size=(1, 1), stride=(1, 1), bias=False)
          (1): BatchNorm2d(122, eps=1e-05, momentum=0.1, affine=True, track_running_stats=True)
          (2): ReLU(inplace=True)
          (3): Conv2d(122, 122, kernel_size=(3, 3), stride=(1, 1), padding=(1, 1), groups=122, bias=False)
          (4): BatchNorm2d(122, eps=1e-05, momentum=0.1, affine=True, track_running_stats=True)
          (5): Conv2d(122, 122, kernel_size=(1, 1), stride=(1, 1), bias=False)
          (6): BatchNorm2d(122, eps=1e-05, momentum=0.1, affine=True, track_running_stats=True)
          (7): ReLU(inplace=True)
        )
      )
    )
    (stage3): Sequential(
      (0): InvertedResidual(
        (branch1): Sequential(
          (0): Conv2d(244, 244, kernel_size=(3, 3), stride=(2, 2), padding=(1, 1), groups=244, bias=False)
          (1): BatchNorm2d(244, eps=1e-05, momentum=0.1, affine=True, track_running_stats=True)
          (2): Conv2d(244, 244, kernel_size=(1, 1), stride=(1, 1), bias=False)
          (3): BatchNorm2d(244, eps=1e-05, momentum=0.1, affine=True, track_running_stats=True)
          (4): ReLU(inplace=True)
        )
        (branch2): Sequential(
          (0): Conv2d(244, 244, kernel_size=(1, 1), stride=(1, 1), bias=False)
          (1): BatchNorm2d(244, eps=1e-05, momentum=0.1, affine=True, track_running_stats=True)
          (2): ReLU(inplace=True)
          (3): Conv2d(244, 244, kernel_size=(3, 3), stride=(2, 2), padding=(1, 1), groups=244, bias=False)
          (4): BatchNorm2d(244, eps=1e-05, momentum=0.1, affine=True, track_running_stats=True)
          (5): Conv2d(244, 244, kernel_size=(1, 1), stride=(1, 1), bias=False)
          (6): BatchNorm2d(244, eps=1e-05, momentum=0.1, affine=True, track_running_stats=True)
          (7): ReLU(inplace=True)
        )
      )
      (1): InvertedResidual(
        (branch1): Sequential()
        (branch2): Sequential(
Preparing model .. Initializing
SHUFFLENET(
  (net): ShuffleNetV2(
    (conv1): Sequential(
      (0): Conv2d(3, 24, kernel_size=(3, 3), stride=(2, 2), padding=(1, 1), bias=False)
      (1): BatchNorm2d(24, eps=1e-05, momentum=0.1, affine=True, track_running_stats=True)
      (2): ReLU(inplace=True)
    )
    (maxpool): MaxPool2d(kernel_size=3, stride=2, padding=1, dilation=1, ceil_mode=False)
    (stage2): Sequential(
      (0): InvertedResidual(
        (branch1): Sequential(
          (0): Conv2d(24, 24, kernel_size=(3, 3), stride=(2, 2), padding=(1, 1), groups=24, bias=False)
          (1): BatchNorm2d(24, eps=1e-05, momentum=0.1, affine=True, track_running_stats=True)
          (2): Conv2d(24, 122, kernel_size=(1, 1), stride=(1, 1), bias=False)
          (3): BatchNorm2d(122, eps=1e-05, momentum=0.1, affine=True, track_running_stats=True)
          (4): ReLU(inplace=True)
        )
        (branch2): Sequential(
          (0): Conv2d(24, 122, kernel_size=(1, 1), stride=(1, 1), bias=False)
          (1): BatchNorm2d(122, eps=1e-05, momentum=0.1, affine=True, track_running_stats=True)
          (2): ReLU(inplace=True)
          (3): Conv2d(122, 122, kernel_size=(3, 3), stride=(2, 2), padding=(1, 1), groups=122, bias=False)
          (4): BatchNorm2d(122, eps=1e-05, momentum=0.1, affine=True, track_running_stats=True)
          (5): Conv2d(122, 122, kernel_size=(1, 1), stride=(1, 1), bias=False)
          (6): BatchNorm2d(122, eps=1e-05, momentum=0.1, affine=True, track_running_stats=True)
          (7): ReLU(inplace=True)
        )
      )
      (1): InvertedResidual(
        (branch1): Sequential()
        (branch2): Sequential(
          (0): Conv2d(122, 122, kernel_size=(1, 1), stride=(1, 1), bias=False)
          (1): BatchNorm2d(122, eps=1e-05, momentum=0.1, affine=True, track_running_stats=True)
          (2): ReLU(inplace=True)
          (3): Conv2d(122, 122, kernel_size=(3, 3), stride=(1, 1), padding=(1, 1), groups=122, bias=False)
          (4): BatchNorm2d(122, eps=1e-05, momentum=0.1, affine=True, track_running_stats=True)
          (5): Conv2d(122, 122, kernel_size=(1, 1), stride=(1, 1), bias=False)
          (6): BatchNorm2d(122, eps=1e-05, momentum=0.1, affine=True, track_running_stats=True)
          (7): ReLU(inplace=True)
        )
      )
      (2): InvertedResidual(
        (branch1): Sequential()
        (branch2): Sequential(
          (0): Conv2d(122, 122, kernel_size=(1, 1), stride=(1, 1), bias=False)
          (1): BatchNorm2d(122, eps=1e-05, momentum=0.1, affine=True, track_running_stats=True)
          (2): ReLU(inplace=True)
          (3): Conv2d(122, 122, kernel_size=(3, 3), stride=(1, 1), padding=(1, 1), groups=122, bias=False)
          (4): BatchNorm2d(122, eps=1e-05, momentum=0.1, affine=True, track_running_stats=True)
          (5): Conv2d(122, 122, kernel_size=(1, 1), stride=(1, 1), bias=False)
          (6): BatchNorm2d(122, eps=1e-05, momentum=0.1, affine=True, track_running_stats=True)
          (7): ReLU(inplace=True)
        )
      )
      (3): InvertedResidual(
        (branch1): Sequential()
        (branch2): Sequential(
          (0): Conv2d(122, 122, kernel_size=(1, 1), stride=(1, 1), bias=False)
          (1): BatchNorm2d(122, eps=1e-05, momentum=0.1, affine=True, track_running_stats=True)
          (2): ReLU(inplace=True)
          (3): Conv2d(122, 122, kernel_size=(3, 3), stride=(1, 1), padding=(1, 1), groups=122, bias=False)
          (4): BatchNorm2d(122, eps=1e-05, momentum=0.1, affine=True, track_running_stats=True)
          (5): Conv2d(122, 122, kernel_size=(1, 1), stride=(1, 1), bias=False)
          (6): BatchNorm2d(122, eps=1e-05, momentum=0.1, affine=True, track_running_stats=True)
          (7): ReLU(inplace=True)
        )
      )
    )
    (stage3): Sequential(
      (0): InvertedResidual(
        (branch1): Sequential(
          (0): Conv2d(244, 244, kernel_size=(3, 3), stride=(2, 2), padding=(1, 1), groups=244, bias=False)
          (1): BatchNorm2d(244, eps=1e-05, momentum=0.1, affine=True, track_running_stats=True)
          (2): Conv2d(244, 244, kernel_size=(1, 1), stride=(1, 1), bias=False)
          (3): BatchNorm2d(244, eps=1e-05, momentum=0.1, affine=True, track_running_stats=True)
          (4): ReLU(inplace=True)
        )
        (branch2): Sequential(
          (0): Conv2d(244, 244, kernel_size=(1, 1), stride=(1, 1), bias=False)
          (1): BatchNorm2d(244, eps=1e-05, momentum=0.1, affine=True, track_running_stats=True)
          (2): ReLU(inplace=True)
          (3): Conv2d(244, 244, kernel_size=(3, 3), stride=(2, 2), padding=(1, 1), groups=244, bias=False)
          (4): BatchNorm2d(244, eps=1e-05, momentum=0.1, affine=True, track_running_stats=True)
          (5): Conv2d(244, 244, kernel_size=(1, 1), stride=(1, 1), bias=False)
          (6): BatchNorm2d(244, eps=1e-05, momentum=0.1, affine=True, track_running_stats=True)
          (7): ReLU(inplace=True)
        )
      )
      (1): InvertedResidual(
        (branch1): Sequential()
        (branch2): Sequential(
          (0): Conv2d(244, 244, kernel_size=(1, 1), stride=(1, 1), bias=False)
          (1): BatchNorm2d(244, eps=1e-05, momentum=0.1, affine=True, track_running_stats=True)
          (2): ReLU(inplace=True)
          (3): Conv2d(244, 244, kernel_size=(3, 3), stride=(1, 1), padding=(1, 1), groups=244, bias=False)
          (4): BatchNorm2d(244, eps=1e-05, momentum=0.1, affine=True, track_running_stats=True)
          (5): Conv2d(244, 244, kernel_size=(1, 1), stride=(1, 1), bias=False)
          (6): BatchNorm2d(244, eps=1e-05, momentum=0.1, affine=True, track_running_stats=True)
          (7): ReLU(inplace=True)
        )
      )
      (2): InvertedResidual(
        (branch1): Sequential()
        (branch2): Sequential(
          (0): Conv2d(244, 244, kernel_size=(1, 1), stride=(1, 1), bias=False)
          (1): BatchNorm2d(244, eps=1e-05, momentum=0.1, affine=True, track_running_stats=True)
          (2): ReLU(inplace=True)
          (3): Conv2d(244, 244, kernel_size=(3, 3), stride=(1, 1), padding=(1, 1), groups=244, bias=False)
          (4): BatchNorm2d(244, eps=1e-05, momentum=0.1, affine=True, track_running_stats=True)
          (5): Conv2d(244, 244, kernel_size=(1, 1), stride=(1, 1), bias=False)
          (6): BatchNorm2d(244, eps=1e-05, momentum=0.1, affine=True, track_running_stats=True)
          (7): ReLU(inplace=True)
        )
      )
      (3): InvertedResidual(
        (branch1): Sequential()
        (branch2): Sequential(
          (0): Conv2d(244, 244, kernel_size=(1, 1), stride=(1, 1), bias=False)
          (1): BatchNorm2d(244, eps=1e-05, momentum=0.1, affine=True, track_running_stats=True)
          (2): ReLU(inplace=True)
          (3): Conv2d(244, 244, kernel_size=(3, 3), stride=(1, 1), padding=(1, 1), groups=244, bias=False)
          (4): BatchNorm2d(244, eps=1e-05, momentum=0.1, affine=True, track_running_stats=True)
          (5): Conv2d(244, 244, kernel_size=(1, 1), stride=(1, 1), bias=False)
          (6): BatchNorm2d(244, eps=1e-05, momentum=0.1, affine=True, track_running_stats=True)
          (7): ReLU(inplace=True)
        )
      )
      (4): InvertedResidual(
        (branch1): Sequential()
        (branch2): Sequential(
          (0): Conv2d(244, 244, kernel_size=(1, 1), stride=(1, 1), bias=False)
          (1): BatchNorm2d(244, eps=1e-05, momentum=0.1, affine=True, track_running_stats=True)
          (2): ReLU(inplace=True)
          (3): Conv2d(244, 244, kernel_size=(3, 3), stride=(1, 1), padding=(1, 1), groups=244, bias=False)
          (4): BatchNorm2d(244, eps=1e-05, momentum=0.1, affine=True, track_running_stats=True)
          (5): Conv2d(244, 244, kernel_size=(1, 1), stride=(1, 1), bias=False)
          (6): BatchNorm2d(244, eps=1e-05, momentum=0.1, affine=True, track_running_stats=True)
          (7): ReLU(inplace=True)
        )
      )
      (5): InvertedResidual(
        (branch1): Sequential()
        (branch2): Sequential(
          (0): Conv2d(244, 244, kernel_size=(1, 1), stride=(1, 1), bias=False)
          (1): BatchNorm2d(244, eps=1e-05, momentum=0.1, affine=True, track_running_stats=True)
          (2): ReLU(inplace=True)
          (3): Conv2d(244, 244, kernel_size=(3, 3), stride=(1, 1), padding=(1, 1), groups=244, bias=False)
          (4): BatchNorm2d(244, eps=1e-05, momentum=0.1, affine=True, track_running_stats=True)
          (5): Conv2d(244, 244, kernel_size=(1, 1), stride=(1, 1), bias=False)
          (6): BatchNorm2d(244, eps=1e-05, momentum=0.1, affine=True, track_running_stats=True)
          (7): ReLU(inplace=True)
        )
      )
      (6): InvertedResidual(
        (branch1): Sequential()
        (branch2): Sequential(
          (0): Conv2d(244, 244, kernel_size=(1, 1), stride=(1, 1), bias=False)
          (1): BatchNorm2d(244, eps=1e-05, momentum=0.1, affine=True, track_running_stats=True)
          (2): ReLU(inplace=True)
          (3): Conv2d(244, 244, kernel_size=(3, 3), stride=(1, 1), padding=(1, 1), groups=244, bias=False)
          (4): BatchNorm2d(244, eps=1e-05, momentum=0.1, affine=True, track_running_stats=True)
          (5): Conv2d(244, 244, kernel_size=(1, 1), stride=(1, 1), bias=False)
          (6): BatchNorm2d(244, eps=1e-05, momentum=0.1, affine=True, track_running_stats=True)
          (7): ReLU(inplace=True)
        )
      )
      (7): InvertedResidual(
        (branch1): Sequential()
        (branch2): Sequential(
          (0): Conv2d(244, 244, kernel_size=(1, 1), stride=(1, 1), bias=False)
          (1): BatchNorm2d(244, eps=1e-05, momentum=0.1, affine=True, track_running_stats=True)
          (2): ReLU(inplace=True)
          (3): Conv2d(244, 244, kernel_size=(3, 3), stride=(1, 1), padding=(1, 1), groups=244, bias=False)
          (4): BatchNorm2d(244, eps=1e-05, momentum=0.1, affine=True, track_running_stats=True)
          (5): Conv2d(244, 244, kernel_size=(1, 1), stride=(1, 1), bias=False)
          (6): BatchNorm2d(244, eps=1e-05, momentum=0.1, affine=True, track_running_stats=True)
          (7): ReLU(inplace=True)
        )
      )
    )
    (stage4): Sequential(
      (0): InvertedResidual(
        (branch1): Sequential(
          (0): Conv2d(488, 488, kernel_size=(3, 3), stride=(2, 2), padding=(1, 1), groups=488, bias=False)
          (1): BatchNorm2d(488, eps=1e-05, momentum=0.1, affine=True, track_running_stats=True)
          (2): Conv2d(488, 488, kernel_size=(1, 1), stride=(1, 1), bias=False)
          (3): BatchNorm2d(488, eps=1e-05, momentum=0.1, affine=True, track_running_stats=True)
          (4): ReLU(inplace=True)
        )
        (branch2): Sequential(
          (0): Conv2d(488, 488, kernel_size=(1, 1), stride=(1, 1), bias=False)
          (1): BatchNorm2d(488, eps=1e-05, momentum=0.1, affine=True, track_running_stats=True)
          (2): ReLU(inplace=True)
          (3): Conv2d(488, 488, kernel_size=(3, 3), stride=(2, 2), padding=(1, 1), groups=488, bias=False)
          (4): BatchNorm2d(488, eps=1e-05, momentum=0.1, affine=True, track_running_stats=True)
          (5): Conv2d(488, 488, kernel_size=(1, 1), stride=(1, 1), bias=False)
          (6): BatchNorm2d(488, eps=1e-05, momentum=0.1, affine=True, track_running_stats=True)
          (7): ReLU(inplace=True)
        )
      )
      (1): InvertedResidual(
        (branch1): Sequential()
        (branch2): Sequential(
          (0): Conv2d(488, 488, kernel_size=(1, 1), stride=(1, 1), bias=False)
          (1): BatchNorm2d(488, eps=1e-05, momentum=0.1, affine=True, track_running_stats=True)
          (2): ReLU(inplace=True)
          (3): Conv2d(488, 488, kernel_size=(3, 3), stride=(1, 1), padding=(1, 1), groups=488, bias=False)
          (4): BatchNorm2d(488, eps=1e-05, momentum=0.1, affine=True, track_running_stats=True)
          (5): Conv2d(488, 488, kernel_size=(1, 1), stride=(1, 1), bias=False)
          (6): BatchNorm2d(488, eps=1e-05, momentum=0.1, affine=True, track_running_stats=True)
          (7): ReLU(inplace=True)
        )
      )
      (2): InvertedResidual(
        (branch1): Sequential()
        (branch2): Sequential(
          (0): Conv2d(488, 488, kernel_size=(1, 1), stride=(1, 1), bias=False)
          (1): BatchNorm2d(488, eps=1e-05, momentum=0.1, affine=True, track_running_stats=True)
          (2): ReLU(inplace=True)
          (3): Conv2d(488, 488, kernel_size=(3, 3), stride=(1, 1), padding=(1, 1), groups=488, bias=False)
          (4): BatchNorm2d(488, eps=1e-05, momentum=0.1, affine=True, track_running_stats=True)
          (5): Conv2d(488, 488, kernel_size=(1, 1), stride=(1, 1), bias=False)
          (6): BatchNorm2d(488, eps=1e-05, momentum=0.1, affine=True, track_running_stats=True)
          (7): ReLU(inplace=True)
        )
      )
      (3): InvertedResidual(
        (branch1): Sequential()
        (branch2): Sequential(
          (0): Conv2d(488, 488, kernel_size=(1, 1), stride=(1, 1), bias=False)
          (1): BatchNorm2d(488, eps=1e-05, momentum=0.1, affine=True, track_running_stats=True)
          (2): ReLU(inplace=True)
          (3): Conv2d(488, 488, kernel_size=(3, 3), stride=(1, 1), padding=(1, 1), groups=488, bias=False)
          (4): BatchNorm2d(488, eps=1e-05, momentum=0.1, affine=True, track_running_stats=True)
          (5): Conv2d(488, 488, kernel_size=(1, 1), stride=(1, 1), bias=False)
          (6): BatchNorm2d(488, eps=1e-05, momentum=0.1, affine=True, track_running_stats=True)
          (7): ReLU(inplace=True)
        )
      )
    )
    (conv5): Sequential(
      (0): Conv2d(976, 2048, kernel_size=(1, 1), stride=(1, 1), bias=False)
      (1): BatchNorm2d(2048, eps=1e-05, momentum=0.1, affine=True, track_running_stats=True)
      (2): ReLU(inplace=True)
    )
    (fc): Linear(in_features=2048, out_features=1000, bias=True)
  )
)
Sat Jun  3 02:04:01 2023 : initialize model with default settings
Sat Jun  3 02:04:01 2023 : trying to move the model to GPU
          (0): Conv2d(244, 244, kernel_size=(1, 1), stride=(1, 1), bias=False)
          (1): BatchNorm2d(244, eps=1e-05, momentum=0.1, affine=True, track_running_stats=True)
          (2): ReLU(inplace=True)
          (3): Conv2d(244, 244, kernel_size=(3, 3), stride=(1, 1), padding=(1, 1), groups=244, bias=False)
          (4): BatchNorm2d(244, eps=1e-05, momentum=0.1, affine=True, track_running_stats=True)
          (5): Conv2d(244, 244, kernel_size=(1, 1), stride=(1, 1), bias=False)
          (6): BatchNorm2d(244, eps=1e-05, momentum=0.1, affine=True, track_running_stats=True)
          (7): ReLU(inplace=True)
        )
      )
      (2): InvertedResidual(
        (branch1): Sequential()
        (branch2): Sequential(
          (0): Conv2d(244, 244, kernel_size=(1, 1), stride=(1, 1), bias=False)
          (1): BatchNorm2d(244, eps=1e-05, momentum=0.1, affine=True, track_running_stats=True)
          (2): ReLU(inplace=True)
          (3): Conv2d(244, 244, kernel_size=(3, 3), stride=(1, 1), padding=(1, 1), groups=244, bias=False)
          (4): BatchNorm2d(244, eps=1e-05, momentum=0.1, affine=True, track_running_stats=True)
          (5): Conv2d(244, 244, kernel_size=(1, 1), stride=(1, 1), bias=False)
          (6): BatchNorm2d(244, eps=1e-05, momentum=0.1, affine=True, track_running_stats=True)
          (7): ReLU(inplace=True)
        )
      )
      (3): InvertedResidual(
        (branch1): Sequential()
        (branch2): Sequential(
          (0): Conv2d(244, 244, kernel_size=(1, 1), stride=(1, 1), bias=False)
          (1): BatchNorm2d(244, eps=1e-05, momentum=0.1, affine=True, track_running_stats=True)
          (2): ReLU(inplace=True)
          (3): Conv2d(244, 244, kernel_size=(3, 3), stride=(1, 1), padding=(1, 1), groups=244, bias=False)
          (4): BatchNorm2d(244, eps=1e-05, momentum=0.1, affine=True, track_running_stats=True)
          (5): Conv2d(244, 244, kernel_size=(1, 1), stride=(1, 1), bias=False)
          (6): BatchNorm2d(244, eps=1e-05, momentum=0.1, affine=True, track_running_stats=True)
          (7): ReLU(inplace=True)
        )
      )
      (4): InvertedResidual(
        (branch1): Sequential()
        (branch2): Sequential(
          (0): Conv2d(244, 244, kernel_size=(1, 1), stride=(1, 1), bias=False)
          (1): BatchNorm2d(244, eps=1e-05, momentum=0.1, affine=True, track_running_stats=True)
          (2): ReLU(inplace=True)
          (3): Conv2d(244, 244, kernel_size=(3, 3), stride=(1, 1), padding=(1, 1), groups=244, bias=False)
          (4): BatchNorm2d(244, eps=1e-05, momentum=0.1, affine=True, track_running_stats=True)
          (5): Conv2d(244, 244, kernel_size=(1, 1), stride=(1, 1), bias=False)
          (6): BatchNorm2d(244, eps=1e-05, momentum=0.1, affine=True, track_running_stats=True)
          (7): ReLU(inplace=True)
        )
      )
      (5): InvertedResidual(
        (branch1): Sequential()
        (branch2): Sequential(
          (0): Conv2d(244, 244, kernel_size=(1, 1), stride=(1, 1), bias=False)
          (1): BatchNorm2d(244, eps=1e-05, momentum=0.1, affine=True, track_running_stats=True)
          (2): ReLU(inplace=True)
          (3): Conv2d(244, 244, kernel_size=(3, 3), stride=(1, 1), padding=(1, 1), groups=244, bias=False)
          (4): BatchNorm2d(244, eps=1e-05, momentum=0.1, affine=True, track_running_stats=True)
          (5): Conv2d(244, 244, kernel_size=(1, 1), stride=(1, 1), bias=False)
          (6): BatchNorm2d(244, eps=1e-05, momentum=0.1, affine=True, track_running_stats=True)
          (7): ReLU(inplace=True)
        )
      )
      (6): InvertedResidual(
        (branch1): Sequential()
        (branch2): Sequential(
          (0): Conv2d(244, 244, kernel_size=(1, 1), stride=(1, 1), bias=False)
          (1): BatchNorm2d(244, eps=1e-05, momentum=0.1, affine=True, track_running_stats=True)
          (2): ReLU(inplace=True)
          (3): Conv2d(244, 244, kernel_size=(3, 3), stride=(1, 1), padding=(1, 1), groups=244, bias=False)
          (4): BatchNorm2d(244, eps=1e-05, momentum=0.1, affine=True, track_running_stats=True)
          (5): Conv2d(244, 244, kernel_size=(1, 1), stride=(1, 1), bias=False)
          (6): BatchNorm2d(244, eps=1e-05, momentum=0.1, affine=True, track_running_stats=True)
          (7): ReLU(inplace=True)
        )
      )
      (7): InvertedResidual(
        (branch1): Sequential()
        (branch2): Sequential(
          (0): Conv2d(244, 244, kernel_size=(1, 1), stride=(1, 1), bias=False)
          (1): BatchNorm2d(244, eps=1e-05, momentum=0.1, affine=True, track_running_stats=True)
          (2): ReLU(inplace=True)
          (3): Conv2d(244, 244, kernel_size=(3, 3), stride=(1, 1), padding=(1, 1), groups=244, bias=False)
          (4): BatchNorm2d(244, eps=1e-05, momentum=0.1, affine=True, track_running_stats=True)
          (5): Conv2d(244, 244, kernel_size=(1, 1), stride=(1, 1), bias=False)
          (6): BatchNorm2d(244, eps=1e-05, momentum=0.1, affine=True, track_running_stats=True)
          (7): ReLU(inplace=True)
        )
      )
    )
    (stage4): Sequential(
      (0): InvertedResidual(
        (branch1): Sequential(
          (0): Conv2d(488, 488, kernel_size=(3, 3), stride=(2, 2), padding=(1, 1), groups=488, bias=False)
          (1): BatchNorm2d(488, eps=1e-05, momentum=0.1, affine=True, track_running_stats=True)
          (2): Conv2d(488, 488, kernel_size=(1, 1), stride=(1, 1), bias=False)
          (3): BatchNorm2d(488, eps=1e-05, momentum=0.1, affine=True, track_running_stats=True)
          (4): ReLU(inplace=True)
        )
        (branch2): Sequential(
          (0): Conv2d(488, 488, kernel_size=(1, 1), stride=(1, 1), bias=False)
          (1): BatchNorm2d(488, eps=1e-05, momentum=0.1, affine=True, track_running_stats=True)
          (2): ReLU(inplace=True)
          (3): Conv2d(488, 488, kernel_size=(3, 3), stride=(2, 2), padding=(1, 1), groups=488, bias=False)
          (4): BatchNorm2d(488, eps=1e-05, momentum=0.1, affine=True, track_running_stats=True)
          (5): Conv2d(488, 488, kernel_size=(1, 1), stride=(1, 1), bias=False)
          (6): BatchNorm2d(488, eps=1e-05, momentum=0.1, affine=True, track_running_stats=True)
          (7): ReLU(inplace=True)
        )
      )
      (1): InvertedResidual(
        (branch1): Sequential()
        (branch2): Sequential(
          (0): Conv2d(488, 488, kernel_size=(1, 1), stride=(1, 1), bias=False)
          (1): BatchNorm2d(488, eps=1e-05, momentum=0.1, affine=True, track_running_stats=True)
          (2): ReLU(inplace=True)
          (3): Conv2d(488, 488, kernel_size=(3, 3), stride=(1, 1), padding=(1, 1), groups=488, bias=False)
          (4): BatchNorm2d(488, eps=1e-05, momentum=0.1, affine=True, track_running_stats=True)
          (5): Conv2d(488, 488, kernel_size=(1, 1), stride=(1, 1), bias=False)
          (6): BatchNorm2d(488, eps=1e-05, momentum=0.1, affine=True, track_running_stats=True)
          (7): ReLU(inplace=True)
        )
      )
      (2): InvertedResidual(
        (branch1): Sequential()
        (branch2): Sequential(
          (0): Conv2d(488, 488, kernel_size=(1, 1), stride=(1, 1), bias=False)
          (1): BatchNorm2d(488, eps=1e-05, momentum=0.1, affine=True, track_running_stats=True)
          (2): ReLU(inplace=True)
          (3): Conv2d(488, 488, kernel_size=(3, 3), stride=(1, 1), padding=(1, 1), groups=488, bias=False)
          (4): BatchNorm2d(488, eps=1e-05, momentum=0.1, affine=True, track_running_stats=True)
          (5): Conv2d(488, 488, kernel_size=(1, 1), stride=(1, 1), bias=False)
          (6): BatchNorm2d(488, eps=1e-05, momentum=0.1, affine=True, track_running_stats=True)
          (7): ReLU(inplace=True)
        )
      )
      (3): InvertedResidual(
        (branch1): Sequential()
        (branch2): Sequential(
          (0): Conv2d(488, 488, kernel_size=(1, 1), stride=(1, 1), bias=False)
          (1): BatchNorm2d(488, eps=1e-05, momentum=0.1, affine=True, track_running_stats=True)
          (2): ReLU(inplace=True)
          (3): Conv2d(488, 488, kernel_size=(3, 3), stride=(1, 1), padding=(1, 1), groups=488, bias=False)
          (4): BatchNorm2d(488, eps=1e-05, momentum=0.1, affine=True, track_running_stats=True)
          (5): Conv2d(488, 488, kernel_size=(1, 1), stride=(1, 1), bias=False)
          (6): BatchNorm2d(488, eps=1e-05, momentum=0.1, affine=True, track_running_stats=True)
          (7): ReLU(inplace=True)
        )
      )
    )
    (conv5): Sequential(
      (0): Conv2d(976, 2048, kernel_size=(1, 1), stride=(1, 1), bias=False)
      (1): BatchNorm2d(2048, eps=1e-05, momentum=0.1, affine=True, track_running_stats=True)
      (2): ReLU(inplace=True)
    )
    (fc): Linear(in_features=2048, out_features=1000, bias=True)
  )
)
Sat Jun  3 02:04:01 2023 : initialize model with default settings
Sat Jun  3 02:04:01 2023 : trying to move the model to GPU
Preparing model .. Initializing
SHUFFLENET(
  (net): ShuffleNetV2(
    (conv1): Sequential(
      (0): Conv2d(3, 24, kernel_size=(3, 3), stride=(2, 2), padding=(1, 1), bias=False)
      (1): BatchNorm2d(24, eps=1e-05, momentum=0.1, affine=True, track_running_stats=True)
      (2): ReLU(inplace=True)
    )
    (maxpool): MaxPool2d(kernel_size=3, stride=2, padding=1, dilation=1, ceil_mode=False)
    (stage2): Sequential(
      (0): InvertedResidual(
        (branch1): Sequential(
          (0): Conv2d(24, 24, kernel_size=(3, 3), stride=(2, 2), padding=(1, 1), groups=24, bias=False)
          (1): BatchNorm2d(24, eps=1e-05, momentum=0.1, affine=True, track_running_stats=True)
          (2): Conv2d(24, 122, kernel_size=(1, 1), stride=(1, 1), bias=False)
          (3): BatchNorm2d(122, eps=1e-05, momentum=0.1, affine=True, track_running_stats=True)
          (4): ReLU(inplace=True)
        )
        (branch2): Sequential(
          (0): Conv2d(24, 122, kernel_size=(1, 1), stride=(1, 1), bias=False)
          (1): BatchNorm2d(122, eps=1e-05, momentum=0.1, affine=True, track_running_stats=True)
          (2): ReLU(inplace=True)
          (3): Conv2d(122, 122, kernel_size=(3, 3), stride=(2, 2), padding=(1, 1), groups=122, bias=False)
          (4): BatchNorm2d(122, eps=1e-05, momentum=0.1, affine=True, track_running_stats=True)
          (5): Conv2d(122, 122, kernel_size=(1, 1), stride=(1, 1), bias=False)
          (6): BatchNorm2d(122, eps=1e-05, momentum=0.1, affine=True, track_running_stats=True)
          (7): ReLU(inplace=True)
        )
      )
      (1): InvertedResidual(
        (branch1): Sequential()
        (branch2): Sequential(
          (0): Conv2d(122, 122, kernel_size=(1, 1), stride=(1, 1), bias=False)
          (1): BatchNorm2d(122, eps=1e-05, momentum=0.1, affine=True, track_running_stats=True)
          (2): ReLU(inplace=True)
          (3): Conv2d(122, 122, kernel_size=(3, 3), stride=(1, 1), padding=(1, 1), groups=122, bias=False)
          (4): BatchNorm2d(122, eps=1e-05, momentum=0.1, affine=True, track_running_stats=True)
          (5): Conv2d(122, 122, kernel_size=(1, 1), stride=(1, 1), bias=False)
          (6): BatchNorm2d(122, eps=1e-05, momentum=0.1, affine=True, track_running_stats=True)
          (7): ReLU(inplace=True)
        )
      )
      (2): InvertedResidual(
        (branch1): Sequential()
        (branch2): Sequential(
          (0): Conv2d(122, 122, kernel_size=(1, 1), stride=(1, 1), bias=False)
          (1): BatchNorm2d(122, eps=1e-05, momentum=0.1, affine=True, track_running_stats=True)
          (2): ReLU(inplace=True)
          (3): Conv2d(122, 122, kernel_size=(3, 3), stride=(1, 1), padding=(1, 1), groups=122, bias=False)
          (4): BatchNorm2d(122, eps=1e-05, momentum=0.1, affine=True, track_running_stats=True)
          (5): Conv2d(122, 122, kernel_size=(1, 1), stride=(1, 1), bias=False)
          (6): BatchNorm2d(122, eps=1e-05, momentum=0.1, affine=True, track_running_stats=True)
          (7): ReLU(inplace=True)
        )
      )
      (3): InvertedResidual(
        (branch1): Sequential()
        (branch2): Sequential(
          (0): Conv2d(122, 122, kernel_size=(1, 1), stride=(1, 1), bias=False)
          (1): BatchNorm2d(122, eps=1e-05, momentum=0.1, affine=True, track_running_stats=True)
          (2): ReLU(inplace=True)
          (3): Conv2d(122, 122, kernel_size=(3, 3), stride=(1, 1), padding=(1, 1), groups=122, bias=False)
          (4): BatchNorm2d(122, eps=1e-05, momentum=0.1, affine=True, track_running_stats=True)
          (5): Conv2d(122, 122, kernel_size=(1, 1), stride=(1, 1), bias=False)
          (6): BatchNorm2d(122, eps=1e-05, momentum=0.1, affine=True, track_running_stats=True)
          (7): ReLU(inplace=True)
        )
      )
    )
    (stage3): Sequential(
      (0): InvertedResidual(
        (branch1): Sequential(
          (0): Conv2d(244, 244, kernel_size=(3, 3), stride=(2, 2), padding=(1, 1), groups=244, bias=False)
          (1): BatchNorm2d(244, eps=1e-05, momentum=0.1, affine=True, track_running_stats=True)
          (2): Conv2d(244, 244, kernel_size=(1, 1), stride=(1, 1), bias=False)
          (3): BatchNorm2d(244, eps=1e-05, momentum=0.1, affine=True, track_running_stats=True)
          (4): ReLU(inplace=True)
        )
        (branch2): Sequential(
          (0): Conv2d(244, 244, kernel_size=(1, 1), stride=(1, 1), bias=False)
          (1): BatchNorm2d(244, eps=1e-05, momentum=0.1, affine=True, track_running_stats=True)
          (2): ReLU(inplace=True)
          (3): Conv2d(244, 244, kernel_size=(3, 3), stride=(2, 2), padding=(1, 1), groups=244, bias=False)
          (4): BatchNorm2d(244, eps=1e-05, momentum=0.1, affine=True, track_running_stats=True)
          (5): Conv2d(244, 244, kernel_size=(1, 1), stride=(1, 1), bias=False)
          (6): BatchNorm2d(244, eps=1e-05, momentum=0.1, affine=True, track_running_stats=True)
          (7): ReLU(inplace=True)
        )
      )
      (1): InvertedResidual(
        (branch1): Sequential()
        (branch2): Sequential(
          (0): Conv2d(244, 244, kernel_size=(1, 1), stride=(1, 1), bias=False)
          (1): BatchNorm2d(244, eps=1e-05, momentum=0.1, affine=True, track_running_stats=True)
          (2): ReLU(inplace=True)
          (3): Conv2d(244, 244, kernel_size=(3, 3), stride=(1, 1), padding=(1, 1), groups=244, bias=False)
          (4): BatchNorm2d(244, eps=1e-05, momentum=0.1, affine=True, track_running_stats=True)
          (5): Conv2d(244, 244, kernel_size=(1, 1), stride=(1, 1), bias=False)
          (6): BatchNorm2d(244, eps=1e-05, momentum=0.1, affine=True, track_running_stats=True)
          (7): ReLU(inplace=True)
        )
      )
      (2): InvertedResidual(
        (branch1): Sequential()
        (branch2): Sequential(
          (0): Conv2d(244, 244, kernel_size=(1, 1), stride=(1, 1), bias=False)
          (1): BatchNorm2d(244, eps=1e-05, momentum=0.1, affine=True, track_running_stats=True)
          (2): ReLU(inplace=True)
          (3): Conv2d(244, 244, kernel_size=(3, 3), stride=(1, 1), padding=(1, 1), groups=244, bias=False)
          (4): BatchNorm2d(244, eps=1e-05, momentum=0.1, affine=True, track_running_stats=True)
          (5): Conv2d(244, 244, kernel_size=(1, 1), stride=(1, 1), bias=False)
          (6): BatchNorm2d(244, eps=1e-05, momentum=0.1, affine=True, track_running_stats=True)
          (7): ReLU(inplace=True)
        )
      )
      (3): InvertedResidual(
        (branch1): Sequential()
        (branch2): Sequential(
          (0): Conv2d(244, 244, kernel_size=(1, 1), stride=(1, 1), bias=False)
          (1): BatchNorm2d(244, eps=1e-05, momentum=0.1, affine=True, track_running_stats=True)
          (2): ReLU(inplace=True)
          (3): Conv2d(244, 244, kernel_size=(3, 3), stride=(1, 1), padding=(1, 1), groups=244, bias=False)
          (4): BatchNorm2d(244, eps=1e-05, momentum=0.1, affine=True, track_running_stats=True)
          (5): Conv2d(244, 244, kernel_size=(1, 1), stride=(1, 1), bias=False)
          (6): BatchNorm2d(244, eps=1e-05, momentum=0.1, affine=True, track_running_stats=True)
          (7): ReLU(inplace=True)
        )
      )
      (4): InvertedResidual(
        (branch1): Sequential()
        (branch2): Sequential(
          (0): Conv2d(244, 244, kernel_size=(1, 1), stride=(1, 1), bias=False)
          (1): BatchNorm2d(244, eps=1e-05, momentum=0.1, affine=True, track_running_stats=True)
          (2): ReLU(inplace=True)
          (3): Conv2d(244, 244, kernel_size=(3, 3), stride=(1, 1), padding=(1, 1), groups=244, bias=False)
          (4): BatchNorm2d(244, eps=1e-05, momentum=0.1, affine=True, track_running_stats=True)
          (5): Conv2d(244, 244, kernel_size=(1, 1), stride=(1, 1), bias=False)
          (6): BatchNorm2d(244, eps=1e-05, momentum=0.1, affine=True, track_running_stats=True)
          (7): ReLU(inplace=True)
        )
      )
      (5): InvertedResidual(
        (branch1): Sequential()
        (branch2): Sequential(
          (0): Conv2d(244, 244, kernel_size=(1, 1), stride=(1, 1), bias=False)
          (1): BatchNorm2d(244, eps=1e-05, momentum=0.1, affine=True, track_running_stats=True)
          (2): ReLU(inplace=True)
          (3): Conv2d(244, 244, kernel_size=(3, 3), stride=(1, 1), padding=(1, 1), groups=244, bias=False)
          (4): BatchNorm2d(244, eps=1e-05, momentum=0.1, affine=True, track_running_stats=True)
          (5): Conv2d(244, 244, kernel_size=(1, 1), stride=(1, 1), bias=False)
          (6): BatchNorm2d(244, eps=1e-05, momentum=0.1, affine=True, track_running_stats=True)
          (7): ReLU(inplace=True)
        )
      )
      (6): InvertedResidual(
        (branch1): Sequential()
        (branch2): Sequential(
          (0): Conv2d(244, 244, kernel_size=(1, 1), stride=(1, 1), bias=False)
          (1): BatchNorm2d(244, eps=1e-05, momentum=0.1, affine=True, track_running_stats=True)
          (2): ReLU(inplace=True)
          (3): Conv2d(244, 244, kernel_size=(3, 3), stride=(1, 1), padding=(1, 1), groups=244, bias=False)
          (4): BatchNorm2d(244, eps=1e-05, momentum=0.1, affine=True, track_running_stats=True)
          (5): Conv2d(244, 244, kernel_size=(1, 1), stride=(1, 1), bias=False)
          (6): BatchNorm2d(244, eps=1e-05, momentum=0.1, affine=True, track_running_stats=True)
          (7): ReLU(inplace=True)
        )
      )
      (7): InvertedResidual(
        (branch1): Sequential()
        (branch2): Sequential(
          (0): Conv2d(244, 244, kernel_size=(1, 1), stride=(1, 1), bias=False)
          (1): BatchNorm2d(244, eps=1e-05, momentum=0.1, affine=True, track_running_stats=True)
          (2): ReLU(inplace=True)
          (3): Conv2d(244, 244, kernel_size=(3, 3), stride=(1, 1), padding=(1, 1), groups=244, bias=False)
          (4): BatchNorm2d(244, eps=1e-05, momentum=0.1, affine=True, track_running_stats=True)
          (5): Conv2d(244, 244, kernel_size=(1, 1), stride=(1, 1), bias=False)
          (6): BatchNorm2d(244, eps=1e-05, momentum=0.1, affine=True, track_running_stats=True)
          (7): ReLU(inplace=True)
        )
      )
    )
    (stage4): Sequential(
      (0): InvertedResidual(
        (branch1): Sequential(
          (0): Conv2d(488, 488, kernel_size=(3, 3), stride=(2, 2), padding=(1, 1), groups=488, bias=False)
          (1): BatchNorm2d(488, eps=1e-05, momentum=0.1, affine=True, track_running_stats=True)
          (2): Conv2d(488, 488, kernel_size=(1, 1), stride=(1, 1), bias=False)
          (3): BatchNorm2d(488, eps=1e-05, momentum=0.1, affine=True, track_running_stats=True)
          (4): ReLU(inplace=True)
        )
        (branch2): Sequential(
          (0): Conv2d(488, 488, kernel_size=(1, 1), stride=(1, 1), bias=False)
          (1): BatchNorm2d(488, eps=1e-05, momentum=0.1, affine=True, track_running_stats=True)
          (2): ReLU(inplace=True)
          (3): Conv2d(488, 488, kernel_size=(3, 3), stride=(2, 2), padding=(1, 1), groups=488, bias=False)
          (4): BatchNorm2d(488, eps=1e-05, momentum=0.1, affine=True, track_running_stats=True)
          (5): Conv2d(488, 488, kernel_size=(1, 1), stride=(1, 1), bias=False)
          (6): BatchNorm2d(488, eps=1e-05, momentum=0.1, affine=True, track_running_stats=True)
          (7): ReLU(inplace=True)
        )
      )
      (1): InvertedResidual(
        (branch1): Sequential()
        (branch2): Sequential(
          (0): Conv2d(488, 488, kernel_size=(1, 1), stride=(1, 1), bias=False)
          (1): BatchNorm2d(488, eps=1e-05, momentum=0.1, affine=True, track_running_stats=True)
          (2): ReLU(inplace=True)
          (3): Conv2d(488, 488, kernel_size=(3, 3), stride=(1, 1), padding=(1, 1), groups=488, bias=False)
          (4): BatchNorm2d(488, eps=1e-05, momentum=0.1, affine=True, track_running_stats=True)
          (5): Conv2d(488, 488, kernel_size=(1, 1), stride=(1, 1), bias=False)
          (6): BatchNorm2d(488, eps=1e-05, momentum=0.1, affine=True, track_running_stats=True)
          (7): ReLU(inplace=True)
        )
      )
      (2): InvertedResidual(
        (branch1): Sequential()
        (branch2): Sequential(
          (0): Conv2d(488, 488, kernel_size=(1, 1), stride=(1, 1), bias=False)
          (1): BatchNorm2d(488, eps=1e-05, momentum=0.1, affine=True, track_running_stats=True)
          (2): ReLU(inplace=True)
          (3): Conv2d(488, 488, kernel_size=(3, 3), stride=(1, 1), padding=(1, 1), groups=488, bias=False)
          (4): BatchNorm2d(488, eps=1e-05, momentum=0.1, affine=True, track_running_stats=True)
          (5): Conv2d(488, 488, kernel_size=(1, 1), stride=(1, 1), bias=False)
          (6): BatchNorm2d(488, eps=1e-05, momentum=0.1, affine=True, track_running_stats=True)
          (7): ReLU(inplace=True)
        )
      )
      (3): InvertedResidual(
        (branch1): Sequential()
        (branch2): Sequential(
          (0): Conv2d(488, 488, kernel_size=(1, 1), stride=(1, 1), bias=False)
          (1): BatchNorm2d(488, eps=1e-05, momentum=0.1, affine=True, track_running_stats=True)
          (2): ReLU(inplace=True)
          (3): Conv2d(488, 488, kernel_size=(3, 3), stride=(1, 1), padding=(1, 1), groups=488, bias=False)
          (4): BatchNorm2d(488, eps=1e-05, momentum=0.1, affine=True, track_running_stats=True)
          (5): Conv2d(488, 488, kernel_size=(1, 1), stride=(1, 1), bias=False)
          (6): BatchNorm2d(488, eps=1e-05, momentum=0.1, affine=True, track_running_stats=True)
          (7): ReLU(inplace=True)
        )
      )
    )
    (conv5): Sequential(
      (0): Conv2d(976, 2048, kernel_size=(1, 1), stride=(1, 1), bias=False)
      (1): BatchNorm2d(2048, eps=1e-05, momentum=0.1, affine=True, track_running_stats=True)
      (2): ReLU(inplace=True)
    )
    (fc): Linear(in_features=2048, out_features=1000, bias=True)
  )
)
Sat Jun  3 02:04:01 2023 : initialize model with default settings
Sat Jun  3 02:04:01 2023 : trying to move the model to GPU
Preparing model .. Initializing
SHUFFLENET(
  (net): ShuffleNetV2(
    (conv1): Sequential(
      (0): Conv2d(3, 24, kernel_size=(3, 3), stride=(2, 2), padding=(1, 1), bias=False)
      (1): BatchNorm2d(24, eps=1e-05, momentum=0.1, affine=True, track_running_stats=True)
      (2): ReLU(inplace=True)
    )
    (maxpool): MaxPool2d(kernel_size=3, stride=2, padding=1, dilation=1, ceil_mode=False)
    (stage2): Sequential(
      (0): InvertedResidual(
        (branch1): Sequential(
          (0): Conv2d(24, 24, kernel_size=(3, 3), stride=(2, 2), padding=(1, 1), groups=24, bias=False)
          (1): BatchNorm2d(24, eps=1e-05, momentum=0.1, affine=True, track_running_stats=True)
          (2): Conv2d(24, 122, kernel_size=(1, 1), stride=(1, 1), bias=False)
          (3): BatchNorm2d(122, eps=1e-05, momentum=0.1, affine=True, track_running_stats=True)
          (4): ReLU(inplace=True)
        )
        (branch2): Sequential(
          (0): Conv2d(24, 122, kernel_size=(1, 1), stride=(1, 1), bias=False)
          (1): BatchNorm2d(122, eps=1e-05, momentum=0.1, affine=True, track_running_stats=True)
          (2): ReLU(inplace=True)
          (3): Conv2d(122, 122, kernel_size=(3, 3), stride=(2, 2), padding=(1, 1), groups=122, bias=False)
          (4): BatchNorm2d(122, eps=1e-05, momentum=0.1, affine=True, track_running_stats=True)
          (5): Conv2d(122, 122, kernel_size=(1, 1), stride=(1, 1), bias=False)
          (6): BatchNorm2d(122, eps=1e-05, momentum=0.1, affine=True, track_running_stats=True)
          (7): ReLU(inplace=True)
        )
      )
      (1): InvertedResidual(
        (branch1): Sequential()
        (branch2): Sequential(
          (0): Conv2d(122, 122, kernel_size=(1, 1), stride=(1, 1), bias=False)
          (1): BatchNorm2d(122, eps=1e-05, momentum=0.1, affine=True, track_running_stats=True)
          (2): ReLU(inplace=True)
          (3): Conv2d(122, 122, kernel_size=(3, 3), stride=(1, 1), padding=(1, 1), groups=122, bias=False)
          (4): BatchNorm2d(122, eps=1e-05, momentum=0.1, affine=True, track_running_stats=True)
          (5): Conv2d(122, 122, kernel_size=(1, 1), stride=(1, 1), bias=False)
          (6): BatchNorm2d(122, eps=1e-05, momentum=0.1, affine=True, track_running_stats=True)
          (7): ReLU(inplace=True)
        )
      )
      (2): InvertedResidual(
        (branch1): Sequential()
        (branch2): Sequential(
          (0): Conv2d(122, 122, kernel_size=(1, 1), stride=(1, 1), bias=False)
          (1): BatchNorm2d(122, eps=1e-05, momentum=0.1, affine=True, track_running_stats=True)
          (2): ReLU(inplace=True)
          (3): Conv2d(122, 122, kernel_size=(3, 3), stride=(1, 1), padding=(1, 1), groups=122, bias=False)
          (4): BatchNorm2d(122, eps=1e-05, momentum=0.1, affine=True, track_running_stats=True)
          (5): Conv2d(122, 122, kernel_size=(1, 1), stride=(1, 1), bias=False)
          (6): BatchNorm2d(122, eps=1e-05, momentum=0.1, affine=True, track_running_stats=True)
          (7): ReLU(inplace=True)
        )
      )
      (3): InvertedResidual(
        (branch1): Sequential()
        (branch2): Sequential(
          (0): Conv2d(122, 122, kernel_size=(1, 1), stride=(1, 1), bias=False)
          (1): BatchNorm2d(122, eps=1e-05, momentum=0.1, affine=True, track_running_stats=True)
          (2): ReLU(inplace=True)
          (3): Conv2d(122, 122, kernel_size=(3, 3), stride=(1, 1), padding=(1, 1), groups=122, bias=False)
          (4): BatchNorm2d(122, eps=1e-05, momentum=0.1, affine=True, track_running_stats=True)
          (5): Conv2d(122, 122, kernel_size=(1, 1), stride=(1, 1), bias=False)
          (6): BatchNorm2d(122, eps=1e-05, momentum=0.1, affine=True, track_running_stats=True)
          (7): ReLU(inplace=True)
        )
      )
    )
    (stage3): Sequential(
      (0): InvertedResidual(
        (branch1): Sequential(
          (0): Conv2d(244, 244, kernel_size=(3, 3), stride=(2, 2), padding=(1, 1), groups=244, bias=False)
          (1): BatchNorm2d(244, eps=1e-05, momentum=0.1, affine=True, track_running_stats=True)
          (2): Conv2d(244, 244, kernel_size=(1, 1), stride=(1, 1), bias=False)
          (3): BatchNorm2d(244, eps=1e-05, momentum=0.1, affine=True, track_running_stats=True)
          (4): ReLU(inplace=True)
        )
        (branch2): Sequential(
          (0): Conv2d(244, 244, kernel_size=(1, 1), stride=(1, 1), bias=False)
          (1): BatchNorm2d(244, eps=1e-05, momentum=0.1, affine=True, track_running_stats=True)
          (2): ReLU(inplace=True)
          (3): Conv2d(244, 244, kernel_size=(3, 3), stride=(2, 2), padding=(1, 1), groups=244, bias=False)
          (4): BatchNorm2d(244, eps=1e-05, momentum=0.1, affine=True, track_running_stats=True)
          (5): Conv2d(244, 244, kernel_size=(1, 1), stride=(1, 1), bias=False)
          (6): BatchNorm2d(244, eps=1e-05, momentum=0.1, affine=True, track_running_stats=True)
          (7): ReLU(inplace=True)
        )
      )
      (1): InvertedResidual(
        (branch1): Sequential()
        (branch2): Sequential(
          (0): Conv2d(244, 244, kernel_size=(1, 1), stride=(1, 1), bias=False)
          (1): BatchNorm2d(244, eps=1e-05, momentum=0.1, affine=True, track_running_stats=True)
          (2): ReLU(inplace=True)
          (3): Conv2d(244, 244, kernel_size=(3, 3), stride=(1, 1), padding=(1, 1), groups=244, bias=False)
          (4): BatchNorm2d(244, eps=1e-05, momentum=0.1, affine=True, track_running_stats=True)
          (5): Conv2d(244, 244, kernel_size=(1, 1), stride=(1, 1), bias=False)
          (6): BatchNorm2d(244, eps=1e-05, momentum=0.1, affine=True, track_running_stats=True)
          (7): ReLU(inplace=True)
        )
      )
      (2): InvertedResidual(
        (branch1): Sequential()
        (branch2): Sequential(
          (0): Conv2d(244, 244, kernel_size=(1, 1), stride=(1, 1), bias=False)
          (1): BatchNorm2d(244, eps=1e-05, momentum=0.1, affine=True, track_running_stats=True)
          (2): ReLU(inplace=True)
          (3): Conv2d(244, 244, kernel_size=(3, 3), stride=(1, 1), padding=(1, 1), groups=244, bias=False)
          (4): BatchNorm2d(244, eps=1e-05, momentum=0.1, affine=True, track_running_stats=True)
          (5): Conv2d(244, 244, kernel_size=(1, 1), stride=(1, 1), bias=False)
          (6): BatchNorm2d(244, eps=1e-05, momentum=0.1, affine=True, track_running_stats=True)
          (7): ReLU(inplace=True)
        )
      )
      (3): InvertedResidual(
        (branch1): Sequential()
        (branch2): Sequential(
          (0): Conv2d(244, 244, kernel_size=(1, 1), stride=(1, 1), bias=False)
          (1): BatchNorm2d(244, eps=1e-05, momentum=0.1, affine=True, track_running_stats=True)
          (2): ReLU(inplace=True)
          (3): Conv2d(244, 244, kernel_size=(3, 3), stride=(1, 1), padding=(1, 1), groups=244, bias=False)
          (4): BatchNorm2d(244, eps=1e-05, momentum=0.1, affine=True, track_running_stats=True)
          (5): Conv2d(244, 244, kernel_size=(1, 1), stride=(1, 1), bias=False)
          (6): BatchNorm2d(244, eps=1e-05, momentum=0.1, affine=True, track_running_stats=True)
          (7): ReLU(inplace=True)
        )
      )
      (4): InvertedResidual(
        (branch1): Sequential()
        (branch2): Sequential(
          (0): Conv2d(244, 244, kernel_size=(1, 1), stride=(1, 1), bias=False)
          (1): BatchNorm2d(244, eps=1e-05, momentum=0.1, affine=True, track_running_stats=True)
          (2): ReLU(inplace=True)
          (3): Conv2d(244, 244, kernel_size=(3, 3), stride=(1, 1), padding=(1, 1), groups=244, bias=False)
          (4): BatchNorm2d(244, eps=1e-05, momentum=0.1, affine=True, track_running_stats=True)
          (5): Conv2d(244, 244, kernel_size=(1, 1), stride=(1, 1), bias=False)
          (6): BatchNorm2d(244, eps=1e-05, momentum=0.1, affine=True, track_running_stats=True)
          (7): ReLU(inplace=True)
        )
      )
      (5): InvertedResidual(
        (branch1): Sequential()
        (branch2): Sequential(
          (0): Conv2d(244, 244, kernel_size=(1, 1), stride=(1, 1), bias=False)
          (1): BatchNorm2d(244, eps=1e-05, momentum=0.1, affine=True, track_running_stats=True)
          (2): ReLU(inplace=True)
          (3): Conv2d(244, 244, kernel_size=(3, 3), stride=(1, 1), padding=(1, 1), groups=244, bias=False)
          (4): BatchNorm2d(244, eps=1e-05, momentum=0.1, affine=True, track_running_stats=True)
          (5): Conv2d(244, 244, kernel_size=(1, 1), stride=(1, 1), bias=False)
          (6): BatchNorm2d(244, eps=1e-05, momentum=0.1, affine=True, track_running_stats=True)
          (7): ReLU(inplace=True)
        )
      )
      (6): InvertedResidual(
        (branch1): Sequential()
        (branch2): Sequential(
          (0): Conv2d(244, 244, kernel_size=(1, 1), stride=(1, 1), bias=False)
          (1): BatchNorm2d(244, eps=1e-05, momentum=0.1, affine=True, track_running_stats=True)
          (2): ReLU(inplace=True)
          (3): Conv2d(244, 244, kernel_size=(3, 3), stride=(1, 1), padding=(1, 1), groups=244, bias=False)
          (4): BatchNorm2d(244, eps=1e-05, momentum=0.1, affine=True, track_running_stats=True)
          (5): Conv2d(244, 244, kernel_size=(1, 1), stride=(1, 1), bias=False)
          (6): BatchNorm2d(244, eps=1e-05, momentum=0.1, affine=True, track_running_stats=True)
          (7): ReLU(inplace=True)
        )
      )
      (7): InvertedResidual(
        (branch1): Sequential()
        (branch2): Sequential(
          (0): Conv2d(244, 244, kernel_size=(1, 1), stride=(1, 1), bias=False)
          (1): BatchNorm2d(244, eps=1e-05, momentum=0.1, affine=True, track_running_stats=True)
          (2): ReLU(inplace=True)
          (3): Conv2d(244, 244, kernel_size=(3, 3), stride=(1, 1), padding=(1, 1), groups=244, bias=False)
          (4): BatchNorm2d(244, eps=1e-05, momentum=0.1, affine=True, track_running_stats=True)
          (5): Conv2d(244, 244, kernel_size=(1, 1), stride=(1, 1), bias=False)
          (6): BatchNorm2d(244, eps=1e-05, momentum=0.1, affine=True, track_running_stats=True)
          (7): ReLU(inplace=True)
        )
      )
    )
    (stage4): Sequential(
      (0): InvertedResidual(
        (branch1): Sequential(
          (0): Conv2d(488, 488, kernel_size=(3, 3), stride=(2, 2), padding=(1, 1), groups=488, bias=False)
          (1): BatchNorm2d(488, eps=1e-05, momentum=0.1, affine=True, track_running_stats=True)
          (2): Conv2d(488, 488, kernel_size=(1, 1), stride=(1, 1), bias=False)
          (3): BatchNorm2d(488, eps=1e-05, momentum=0.1, affine=True, track_running_stats=True)
          (4): ReLU(inplace=True)
        )
        (branch2): Sequential(
          (0): Conv2d(488, 488, kernel_size=(1, 1), stride=(1, 1), bias=False)
          (1): BatchNorm2d(488, eps=1e-05, momentum=0.1, affine=True, track_running_stats=True)
          (2): ReLU(inplace=True)
          (3): Conv2d(488, 488, kernel_size=(3, 3), stride=(2, 2), padding=(1, 1), groups=488, bias=False)
          (4): BatchNorm2d(488, eps=1e-05, momentum=0.1, affine=True, track_running_stats=True)
          (5): Conv2d(488, 488, kernel_size=(1, 1), stride=(1, 1), bias=False)
          (6): BatchNorm2d(488, eps=1e-05, momentum=0.1, affine=True, track_running_stats=True)
          (7): ReLU(inplace=True)
        )
      )
      (1): InvertedResidual(
        (branch1): Sequential()
        (branch2): Sequential(
          (0): Conv2d(488, 488, kernel_size=(1, 1), stride=(1, 1), bias=False)
          (1): BatchNorm2d(488, eps=1e-05, momentum=0.1, affine=True, track_running_stats=True)
          (2): ReLU(inplace=True)
          (3): Conv2d(488, 488, kernel_size=(3, 3), stride=(1, 1), padding=(1, 1), groups=488, bias=False)
          (4): BatchNorm2d(488, eps=1e-05, momentum=0.1, affine=True, track_running_stats=True)
          (5): Conv2d(488, 488, kernel_size=(1, 1), stride=(1, 1), bias=False)
          (6): BatchNorm2d(488, eps=1e-05, momentum=0.1, affine=True, track_running_stats=True)
          (7): ReLU(inplace=True)
        )
      )
      (2): InvertedResidual(
        (branch1): Sequential()
        (branch2): Sequential(
          (0): Conv2d(488, 488, kernel_size=(1, 1), stride=(1, 1), bias=False)
          (1): BatchNorm2d(488, eps=1e-05, momentum=0.1, affine=True, track_running_stats=True)
          (2): ReLU(inplace=True)
          (3): Conv2d(488, 488, kernel_size=(3, 3), stride=(1, 1), padding=(1, 1), groups=488, bias=False)
          (4): BatchNorm2d(488, eps=1e-05, momentum=0.1, affine=True, track_running_stats=True)
          (5): Conv2d(488, 488, kernel_size=(1, 1), stride=(1, 1), bias=False)
          (6): BatchNorm2d(488, eps=1e-05, momentum=0.1, affine=True, track_running_stats=True)
          (7): ReLU(inplace=True)
        )
      )
      (3): InvertedResidual(
        (branch1): Sequential()
        (branch2): Sequential(
          (0): Conv2d(488, 488, kernel_size=(1, 1), stride=(1, 1), bias=False)
          (1): BatchNorm2d(488, eps=1e-05, momentum=0.1, affine=True, track_running_stats=True)
          (2): ReLU(inplace=True)
          (3): Conv2d(488, 488, kernel_size=(3, 3), stride=(1, 1), padding=(1, 1), groups=488, bias=False)
          (4): BatchNorm2d(488, eps=1e-05, momentum=0.1, affine=True, track_running_stats=True)
          (5): Conv2d(488, 488, kernel_size=(1, 1), stride=(1, 1), bias=False)
          (6): BatchNorm2d(488, eps=1e-05, momentum=0.1, affine=True, track_running_stats=True)
          (7): ReLU(inplace=True)
        )
      )
    )
    (conv5): Sequential(
      (0): Conv2d(976, 2048, kernel_size=(1, 1), stride=(1, 1), bias=False)
      (1): BatchNorm2d(2048, eps=1e-05, momentum=0.1, affine=True, track_running_stats=True)
      (2): ReLU(inplace=True)
    )
    (fc): Linear(in_features=2048, out_features=1000, bias=True)
  )
)
Sat Jun  3 02:04:01 2023 : initialize model with default settings
Sat Jun  3 02:04:01 2023 : trying to move the model to GPU
Sat Jun  3 02:04:04 2023 : model: SHUFFLENET(
  (net): ShuffleNetV2(
    (conv1): Sequential(
      (0): Conv2d(3, 24, kernel_size=(3, 3), stride=(2, 2), padding=(1, 1), bias=False)
      (1): BatchNorm2d(24, eps=1e-05, momentum=0.1, affine=True, track_running_stats=True)
      (2): ReLU(inplace=True)
    )
    (maxpool): MaxPool2d(kernel_size=3, stride=2, padding=1, dilation=1, ceil_mode=False)
    (stage2): Sequential(
      (0): InvertedResidual(
        (branch1): Sequential(
          (0): Conv2d(24, 24, kernel_size=(3, 3), stride=(2, 2), padding=(1, 1), groups=24, bias=False)
          (1): BatchNorm2d(24, eps=1e-05, momentum=0.1, affine=True, track_running_stats=True)
          (2): Conv2d(24, 122, kernel_size=(1, 1), stride=(1, 1), bias=False)
          (3): BatchNorm2d(122, eps=1e-05, momentum=0.1, affine=True, track_running_stats=True)
          (4): ReLU(inplace=True)
        )
        (branch2): Sequential(
          (0): Conv2d(24, 122, kernel_size=(1, 1), stride=(1, 1), bias=False)
          (1): BatchNorm2d(122, eps=1e-05, momentum=0.1, affine=True, track_running_stats=True)
          (2): ReLU(inplace=True)
          (3): Conv2d(122, 122, kernel_size=(3, 3), stride=(2, 2), padding=(1, 1), groups=122, bias=False)
          (4): BatchNorm2d(122, eps=1e-05, momentum=0.1, affine=True, track_running_stats=True)
          (5): Conv2d(122, 122, kernel_size=(1, 1), stride=(1, 1), bias=False)
          (6): BatchNorm2d(122, eps=1e-05, momentum=0.1, affine=True, track_running_stats=True)
          (7): ReLU(inplace=True)
        )
      )
      (1): InvertedResidual(
        (branch1): Sequential()
        (branch2): Sequential(
          (0): Conv2d(122, 122, kernel_size=(1, 1), stride=(1, 1), bias=False)
          (1): BatchNorm2d(122, eps=1e-05, momentum=0.1, affine=True, track_running_stats=True)
          (2): ReLU(inplace=True)
          (3): Conv2d(122, 122, kernel_size=(3, 3), stride=(1, 1), padding=(1, 1), groups=122, bias=False)
          (4): BatchNorm2d(122, eps=1e-05, momentum=0.1, affine=True, track_running_stats=True)
          (5): Conv2d(122, 122, kernel_size=(1, 1), stride=(1, 1), bias=False)
          (6): BatchNorm2d(122, eps=1e-05, momentum=0.1, affine=True, track_running_stats=True)
          (7): ReLU(inplace=True)
        )
      )
      (2): InvertedResidual(
        (branch1): Sequential()
        (branch2): Sequential(
          (0): Conv2d(122, 122, kernel_size=(1, 1), stride=(1, 1), bias=False)
          (1): BatchNorm2d(122, eps=1e-05, momentum=0.1, affine=True, track_running_stats=True)
          (2): ReLU(inplace=True)
          (3): Conv2d(122, 122, kernel_size=(3, 3), stride=(1, 1), padding=(1, 1), groups=122, bias=False)
          (4): BatchNorm2d(122, eps=1e-05, momentum=0.1, affine=True, track_running_stats=True)
          (5): Conv2d(122, 122, kernel_size=(1, 1), stride=(1, 1), bias=False)
          (6): BatchNorm2d(122, eps=1e-05, momentum=0.1, affine=True, track_running_stats=True)
          (7): ReLU(inplace=True)
        )
      )
      (3): InvertedResidual(
        (branch1): Sequential()
        (branch2): Sequential(
          (0): Conv2d(122, 122, kernel_size=(1, 1), stride=(1, 1), bias=False)
          (1): BatchNorm2d(122, eps=1e-05, momentum=0.1, affine=True, track_running_stats=True)
          (2): ReLU(inplace=True)
          (3): Conv2d(122, 122, kernel_size=(3, 3), stride=(1, 1), padding=(1, 1), groups=122, bias=False)
          (4): BatchNorm2d(122, eps=1e-05, momentum=0.1, affine=True, track_running_stats=True)
          (5): Conv2d(122, 122, kernel_size=(1, 1), stride=(1, 1), bias=False)
          (6): BatchNorm2d(122, eps=1e-05, momentum=0.1, affine=True, track_running_stats=True)
          (7): ReLU(inplace=True)
        )
      )
    )
    (stage3): Sequential(
      (0): InvertedResidual(
        (branch1): Sequential(
          (0): Conv2d(244, 244, kernel_size=(3, 3), stride=(2, 2), padding=(1, 1), groups=244, bias=False)
          (1): BatchNorm2d(244, eps=1e-05, momentum=0.1, affine=True, track_running_stats=True)
          (2): Conv2d(244, 244, kernel_size=(1, 1), stride=(1, 1), bias=False)
          (3): BatchNorm2d(244, eps=1e-05, momentum=0.1, affine=True, track_running_stats=True)
          (4): ReLU(inplace=True)
        )
        (branch2): Sequential(
          (0): Conv2d(244, 244, kernel_size=(1, 1), stride=(1, 1), bias=False)
          (1): BatchNorm2d(244, eps=1e-05, momentum=0.1, affine=True, track_running_stats=True)
          (2): ReLU(inplace=True)
          (3): Conv2d(244, 244, kernel_size=(3, 3), stride=(2, 2), padding=(1, 1), groups=244, bias=False)
          (4): BatchNorm2d(244, eps=1e-05, momentum=0.1, affine=True, track_running_stats=True)
          (5): Conv2d(244, 244, kernel_size=(1, 1), stride=(1, 1), bias=False)
          (6): BatchNorm2d(244, eps=1e-05, momentum=0.1, affine=True, track_running_stats=True)
          (7): ReLU(inplace=True)
        )
      )
      (1): InvertedResidual(
        (branch1): Sequential()
        (branch2): Sequential(
          (0): Conv2d(244, 244, kernel_size=(1, 1), stride=(1, 1), bias=False)
          (1): BatchNorm2d(244, eps=1e-05, momentum=0.1, affine=True, track_running_stats=True)
          (2): ReLU(inplace=True)
          (3): Conv2d(244, 244, kernel_size=(3, 3), stride=(1, 1), padding=(1, 1), groups=244, bias=False)
          (4): BatchNorm2d(244, eps=1e-05, momentum=0.1, affine=True, track_running_stats=True)
          (5): Conv2d(244, 244, kernel_size=(1, 1), stride=(1, 1), bias=False)
          (6): BatchNorm2d(244, eps=1e-05, momentum=0.1, affine=True, track_running_stats=True)
          (7): ReLU(inplace=True)
        )
      )
      (2): InvertedResidual(
        (branch1): Sequential()
        (branch2): Sequential(
          (0): Conv2d(244, 244, kernel_size=(1, 1), stride=(1, 1), bias=False)
          (1): BatchNorm2d(244, eps=1e-05, momentum=0.1, affine=True, track_running_stats=True)
          (2): ReLU(inplace=True)
          (3): Conv2d(244, 244, kernel_size=(3, 3), stride=(1, 1), padding=(1, 1), groups=244, bias=False)
          (4): BatchNorm2d(244, eps=1e-05, momentum=0.1, affine=True, track_running_stats=True)
          (5): Conv2d(244, 244, kernel_size=(1, 1), stride=(1, 1), bias=False)
          (6): BatchNorm2d(244, eps=1e-05, momentum=0.1, affine=True, track_running_stats=True)
          (7): ReLU(inplace=True)
        )
      )
      (3): InvertedResidual(
        (branch1): Sequential()
        (branch2): Sequential(
          (0): Conv2d(244, 244, kernel_size=(1, 1), stride=(1, 1), bias=False)
          (1): BatchNorm2d(244, eps=1e-05, momentum=0.1, affine=True, track_running_stats=True)
          (2): ReLU(inplace=True)
          (3): Conv2d(244, 244, kernel_size=(3, 3), stride=(1, 1), padding=(1, 1), groups=244, bias=False)
          (4): BatchNorm2d(244, eps=1e-05, momentum=0.1, affine=True, track_running_stats=True)
          (5): Conv2d(244, 244, kernel_size=(1, 1), stride=(1, 1), bias=False)
          (6): BatchNorm2d(244, eps=1e-05, momentum=0.1, affine=True, track_running_stats=True)
          (7): ReLU(inplace=True)
        )
      )
      (4): InvertedResidual(
        (branch1): Sequential()
        (branch2): Sequential(
          (0): Conv2d(244, 244, kernel_size=(1, 1), stride=(1, 1), bias=False)
          (1): BatchNorm2d(244, eps=1e-05, momentum=0.1, affine=True, track_running_stats=True)
          (2): ReLU(inplace=True)
          (3): Conv2d(244, 244, kernel_size=(3, 3), stride=(1, 1), padding=(1, 1), groups=244, bias=False)
          (4): BatchNorm2d(244, eps=1e-05, momentum=0.1, affine=True, track_running_stats=True)
          (5): Conv2d(244, 244, kernel_size=(1, 1), stride=(1, 1), bias=False)
          (6): BatchNorm2d(244, eps=1e-05, momentum=0.1, affine=True, track_running_stats=True)
          (7): ReLU(inplace=True)
        )
      )
      (5): InvertedResidual(
        (branch1): Sequential()
        (branch2): Sequential(
          (0): Conv2d(244, 244, kernel_size=(1, 1), stride=(1, 1), bias=False)
          (1): BatchNorm2d(244, eps=1e-05, momentum=0.1, affine=True, track_running_stats=True)
          (2): ReLU(inplace=True)
          (3): Conv2d(244, 244, kernel_size=(3, 3), stride=(1, 1), padding=(1, 1), groups=244, bias=False)
          (4): BatchNorm2d(244, eps=1e-05, momentum=0.1, affine=True, track_running_stats=True)
          (5): Conv2d(244, 244, kernel_size=(1, 1), stride=(1, 1), bias=False)
          (6): BatchNorm2d(244, eps=1e-05, momentum=0.1, affine=True, track_running_stats=True)
          (7): ReLU(inplace=True)
        )
      )
      (6): InvertedResidual(
        (branch1): Sequential()
        (branch2): Sequential(
          (0): Conv2d(244, 244, kernel_size=(1, 1), stride=(1, 1), bias=False)
          (1): BatchNorm2d(244, eps=1e-05, momentum=0.1, affine=True, track_running_stats=True)
          (2): ReLU(inplace=True)
          (3): Conv2d(244, 244, kernel_size=(3, 3), stride=(1, 1), padding=(1, 1), groups=244, bias=False)
          (4): BatchNorm2d(244, eps=1e-05, momentum=0.1, affine=True, track_running_stats=True)
          (5): Conv2d(244, 244, kernel_size=(1, 1), stride=(1, 1), bias=False)
          (6): BatchNorm2d(244, eps=1e-05, momentum=0.1, affine=True, track_running_stats=True)
          (7): ReLU(inplace=True)
        )
      )
      (7): InvertedResidual(
        (branch1): Sequential()
        (branch2): Sequential(
          (0): Conv2d(244, 244, kernel_size=(1, 1), stride=(1, 1), bias=False)
          (1): BatchNorm2d(244, eps=1e-05, momentum=0.1, affine=True, track_running_stats=True)
          (2): ReLU(inplace=True)
          (3): Conv2d(244, 244, kernel_size=(3, 3), stride=(1, 1), padding=(1, 1), groups=244, bias=False)
          (4): BatchNorm2d(244, eps=1e-05, momentum=0.1, affine=True, track_running_stats=True)
          (5): Conv2d(244, 244, kernel_size=(1, 1), stride=(1, 1), bias=False)
          (6): BatchNorm2d(244, eps=1e-05, momentum=0.1, affine=True, track_running_stats=True)
          (7): ReLU(inplace=True)
        )
      )
    )
    (stage4): Sequential(
      (0): InvertedResidual(
        (branch1): Sequential(
          (0): Conv2d(488, 488, kernel_size=(3, 3), stride=(2, 2), padding=(1, 1), groups=488, bias=False)
          (1): BatchNorm2d(488, eps=1e-05, momentum=0.1, affine=True, track_running_stats=True)
          (2): Conv2d(488, 488, kernel_size=(1, 1), stride=(1, 1), bias=False)
          (3): BatchNorm2d(488, eps=1e-05, momentum=0.1, affine=True, track_running_stats=True)
          (4): ReLU(inplace=True)
        )
        (branch2): Sequential(
          (0): Conv2d(488, 488, kernel_size=(1, 1), stride=(1, 1), bias=False)
          (1): BatchNorm2d(488, eps=1e-05, momentum=0.1, affine=True, track_running_stats=True)
          (2): ReLU(inplace=True)
          (3): Conv2d(488, 488, kernel_size=(3, 3), stride=(2, 2), padding=(1, 1), groups=488, bias=False)
          (4): BatchNorm2d(488, eps=1e-05, momentum=0.1, affine=True, track_running_stats=True)
          (5): Conv2d(488, 488, kernel_size=(1, 1), stride=(1, 1), bias=False)
          (6): BatchNorm2d(488, eps=1e-05, momentum=0.1, affine=True, track_running_stats=True)
          (7): ReLU(inplace=True)
        )
      )
      (1): InvertedResidual(
        (branch1): Sequential()
        (branch2): Sequential(
          (0): Conv2d(488, 488, kernel_size=(1, 1), stride=(1, 1), bias=False)
          (1): BatchNorm2d(488, eps=1e-05, momentum=0.1, affine=True, track_running_stats=True)
          (2): ReLU(inplace=True)
          (3): Conv2d(488, 488, kernel_size=(3, 3), stride=(1, 1), padding=(1, 1), groups=488, bias=False)
          (4): BatchNorm2d(488, eps=1e-05, momentum=0.1, affine=True, track_running_stats=True)
          (5): Conv2d(488, 488, kernel_size=(1, 1), stride=(1, 1), bias=False)
          (6): BatchNorm2d(488, eps=1e-05, momentum=0.1, affine=True, track_running_stats=True)
          (7): ReLU(inplace=True)
        )
      )
      (2): InvertedResidual(
        (branch1): Sequential()
        (branch2): Sequential(
          (0): Conv2d(488, 488, kernel_size=(1, 1), stride=(1, 1), bias=False)
          (1): BatchNorm2d(488, eps=1e-05, momentum=0.1, affine=True, track_running_stats=True)
          (2): ReLU(inplace=True)
          (3): Conv2d(488, 488, kernel_size=(3, 3), stride=(1, 1), padding=(1, 1), groups=488, bias=False)
          (4): BatchNorm2d(488, eps=1e-05, momentum=0.1, affine=True, track_running_stats=True)
          (5): Conv2d(488, 488, kernel_size=(1, 1), stride=(1, 1), bias=False)
          (6): BatchNorm2d(488, eps=1e-05, momentum=0.1, affine=True, track_running_stats=True)
          (7): ReLU(inplace=True)
        )
      )
      (3): InvertedResidual(
        (branch1): Sequential()
        (branch2): Sequential(
          (0): Conv2d(488, 488, kernel_size=(1, 1), stride=(1, 1), bias=False)
          (1): BatchNorm2d(488, eps=1e-05, momentum=0.1, affine=True, track_running_stats=True)
          (2): ReLU(inplace=True)
          (3): Conv2d(488, 488, kernel_size=(3, 3), stride=(1, 1), padding=(1, 1), groups=488, bias=False)
          (4): BatchNorm2d(488, eps=1e-05, momentum=0.1, affine=True, track_running_stats=True)
          (5): Conv2d(488, 488, kernel_size=(1, 1), stride=(1, 1), bias=False)
          (6): BatchNorm2d(488, eps=1e-05, momentum=0.1, affine=True, track_running_stats=True)
          (7): ReLU(inplace=True)
        )
      )
    )
    (conv5): Sequential(
      (0): Conv2d(976, 2048, kernel_size=(1, 1), stride=(1, 1), bias=False)
      (1): BatchNorm2d(2048, eps=1e-05, momentum=0.1, affine=True, track_running_stats=True)
      (2): ReLU(inplace=True)
    )
    (fc): Linear(in_features=2048, out_features=1000, bias=True)
  )
)
Sat Jun  3 02:04:04 2023 : torch.cuda.memory_allocated(): 29774336
Sat Jun  3 02:04:04 2023 : torch.cuda.memory_cached(): 35651584
Sat Jun  3 02:04:04 2023 : torch.cuda.synchronize(): None
Sat Jun  3 02:04:04 2023 : model: SHUFFLENET(
  (net): ShuffleNetV2(
    (conv1): Sequential(
      (0): Conv2d(3, 24, kernel_size=(3, 3), stride=(2, 2), padding=(1, 1), bias=False)
      (1): BatchNorm2d(24, eps=1e-05, momentum=0.1, affine=True, track_running_stats=True)
      (2): ReLU(inplace=True)
    )
    (maxpool): MaxPool2d(kernel_size=3, stride=2, padding=1, dilation=1, ceil_mode=False)
    (stage2): Sequential(
      (0): InvertedResidual(
        (branch1): Sequential(
          (0): Conv2d(24, 24, kernel_size=(3, 3), stride=(2, 2), padding=(1, 1), groups=24, bias=False)
          (1): BatchNorm2d(24, eps=1e-05, momentum=0.1, affine=True, track_running_stats=True)
          (2): Conv2d(24, 122, kernel_size=(1, 1), stride=(1, 1), bias=False)
          (3): BatchNorm2d(122, eps=1e-05, momentum=0.1, affine=True, track_running_stats=True)
          (4): ReLU(inplace=True)
        )
        (branch2): Sequential(
          (0): Conv2d(24, 122, kernel_size=(1, 1), stride=(1, 1), bias=False)
          (1): BatchNorm2d(122, eps=1e-05, momentum=0.1, affine=True, track_running_stats=True)
          (2): ReLU(inplace=True)
          (3): Conv2d(122, 122, kernel_size=(3, 3), stride=(2, 2), padding=(1, 1), groups=122, bias=False)
          (4): BatchNorm2d(122, eps=1e-05, momentum=0.1, affine=True, track_running_stats=True)
          (5): Conv2d(122, 122, kernel_size=(1, 1), stride=(1, 1), bias=False)
          (6): BatchNorm2d(122, eps=1e-05, momentum=0.1, affine=True, track_running_stats=True)
          (7): ReLU(inplace=True)
        )
      )
      (1): InvertedResidual(
        (branch1): Sequential()
        (branch2): Sequential(
          (0): Conv2d(122, 122, kernel_size=(1, 1), stride=(1, 1), bias=False)
          (1): BatchNorm2d(122, eps=1e-05, momentum=0.1, affine=True, track_running_stats=True)
          (2): ReLU(inplace=True)
          (3): Conv2d(122, 122, kernel_size=(3, 3), stride=(1, 1), padding=(1, 1), groups=122, bias=False)
          (4): BatchNorm2d(122, eps=1e-05, momentum=0.1, affine=True, track_running_stats=True)
          (5): Conv2d(122, 122, kernel_size=(1, 1), stride=(1, 1), bias=False)
          (6): BatchNorm2d(122, eps=1e-05, momentum=0.1, affine=True, track_running_stats=True)
          (7): ReLU(inplace=True)
        )
      )
      (2): InvertedResidual(
        (branch1): Sequential()
        (branch2): Sequential(
          (0): Conv2d(122, 122, kernel_size=(1, 1), stride=(1, 1), bias=False)
          (1): BatchNorm2d(122, eps=1e-05, momentum=0.1, affine=True, track_running_stats=True)
          (2): ReLU(inplace=True)
          (3): Conv2d(122, 122, kernel_size=(3, 3), stride=(1, 1), padding=(1, 1), groups=122, bias=False)
          (4): BatchNorm2d(122, eps=1e-05, momentum=0.1, affine=True, track_running_stats=True)
          (5): Conv2d(122, 122, kernel_size=(1, 1), stride=(1, 1), bias=False)
          (6): BatchNorm2d(122, eps=1e-05, momentum=0.1, affine=True, track_running_stats=True)
          (7): ReLU(inplace=True)
        )
      )
      (3): InvertedResidual(
        (branch1): Sequential()
        (branch2): Sequential(
          (0): Conv2d(122, 122, kernel_size=(1, 1), stride=(1, 1), bias=False)
          (1): BatchNorm2d(122, eps=1e-05, momentum=0.1, affine=True, track_running_stats=True)
          (2): ReLU(inplace=True)
          (3): Conv2d(122, 122, kernel_size=(3, 3), stride=(1, 1), padding=(1, 1), groups=122, bias=False)
          (4): BatchNorm2d(122, eps=1e-05, momentum=0.1, affine=True, track_running_stats=True)
          (5): Conv2d(122, 122, kernel_size=(1, 1), stride=(1, 1), bias=False)
          (6): BatchNorm2d(122, eps=1e-05, momentum=0.1, affine=True, track_running_stats=True)
          (7): ReLU(inplace=True)
        )
      )
    )
    (stage3): Sequential(
      (0): InvertedResidual(
        (branch1): Sequential(
          (0): Conv2d(244, 244, kernel_size=(3, 3), stride=(2, 2), padding=(1, 1), groups=244, bias=False)
          (1): BatchNorm2d(244, eps=1e-05, momentum=0.1, affine=True, track_running_stats=True)
          (2): Conv2d(244, 244, kernel_size=(1, 1), stride=(1, 1), bias=False)
          (3): BatchNorm2d(244, eps=1e-05, momentum=0.1, affine=True, track_running_stats=True)
          (4): ReLU(inplace=True)
        )
        (branch2): Sequential(
          (0): Conv2d(244, 244, kernel_size=(1, 1), stride=(1, 1), bias=False)
          (1): BatchNorm2d(244, eps=1e-05, momentum=0.1, affine=True, track_running_stats=True)
          (2): ReLU(inplace=True)
          (3): Conv2d(244, 244, kernel_size=(3, 3), stride=(2, 2), padding=(1, 1), groups=244, bias=False)
          (4): BatchNorm2d(244, eps=1e-05, momentum=0.1, affine=True, track_running_stats=True)
          (5): Conv2d(244, 244, kernel_size=(1, 1), stride=(1, 1), bias=False)
          (6): BatchNorm2d(244, eps=1e-05, momentum=0.1, affine=True, track_running_stats=True)
          (7): ReLU(inplace=True)
        )
      )
      (1): InvertedResidual(
        (branch1): Sequential()
        (branch2): Sequential(
          (0): Conv2d(244, 244, kernel_size=(1, 1), stride=(1, 1), bias=False)
          (1): BatchNorm2d(244, eps=1e-05, momentum=0.1, affine=True, track_running_stats=True)
          (2): ReLU(inplace=True)
          (3): Conv2d(244, 244, kernel_size=(3, 3), stride=(1, 1), padding=(1, 1), groups=244, bias=False)
          (4): BatchNorm2d(244, eps=1e-05, momentum=0.1, affine=True, track_running_stats=True)
          (5): Conv2d(244, 244, kernel_size=(1, 1), stride=(1, 1), bias=False)
          (6): BatchNorm2d(244, eps=1e-05, momentum=0.1, affine=True, track_running_stats=True)
          (7): ReLU(inplace=True)
        )
      )
      (2): InvertedResidual(
        (branch1): Sequential()
        (branch2): Sequential(
          (0): Conv2d(244, 244, kernel_size=(1, 1), stride=(1, 1), bias=False)
          (1): BatchNorm2d(244, eps=1e-05, momentum=0.1, affine=True, track_running_stats=True)
          (2): ReLU(inplace=True)
          (3): Conv2d(244, 244, kernel_size=(3, 3), stride=(1, 1), padding=(1, 1), groups=244, bias=False)
          (4): BatchNorm2d(244, eps=1e-05, momentum=0.1, affine=True, track_running_stats=True)
          (5): Conv2d(244, 244, kernel_size=(1, 1), stride=(1, 1), bias=False)
          (6): BatchNorm2d(244, eps=1e-05, momentum=0.1, affine=True, track_running_stats=True)
          (7): ReLU(inplace=True)
        )
      )
      (3): InvertedResidual(
        (branch1): Sequential()
        (branch2): Sequential(
          (0): Conv2d(244, 244, kernel_size=(1, 1), stride=(1, 1), bias=False)
          (1): BatchNorm2d(244, eps=1e-05, momentum=0.1, affine=True, track_running_stats=True)
          (2): ReLU(inplace=True)
          (3): Conv2d(244, 244, kernel_size=(3, 3), stride=(1, 1), padding=(1, 1), groups=244, bias=False)
          (4): BatchNorm2d(244, eps=1e-05, momentum=0.1, affine=True, track_running_stats=True)
          (5): Conv2d(244, 244, kernel_size=(1, 1), stride=(1, 1), bias=False)
          (6): BatchNorm2d(244, eps=1e-05, momentum=0.1, affine=True, track_running_stats=True)
          (7): ReLU(inplace=True)
        )
      )
      (4): InvertedResidual(
        (branch1): Sequential()
        (branch2): Sequential(
          (0): Conv2d(244, 244, kernel_size=(1, 1), stride=(1, 1), bias=False)
          (1): BatchNorm2d(244, eps=1e-05, momentum=0.1, affine=True, track_running_stats=True)
          (2): ReLU(inplace=True)
          (3): Conv2d(244, 244, kernel_size=(3, 3), stride=(1, 1), padding=(1, 1), groups=244, bias=False)
          (4): BatchNorm2d(244, eps=1e-05, momentum=0.1, affine=True, track_running_stats=True)
          (5): Conv2d(244, 244, kernel_size=(1, 1), stride=(1, 1), bias=False)
          (6): BatchNorm2d(244, eps=1e-05, momentum=0.1, affine=True, track_running_stats=True)
          (7): ReLU(inplace=True)
        )
      )
      (5): InvertedResidual(
        (branch1): Sequential()
        (branch2): Sequential(
          (0): Conv2d(244, 244, kernel_size=(1, 1), stride=(1, 1), bias=False)
          (1): BatchNorm2d(244, eps=1e-05, momentum=0.1, affine=True, track_running_stats=True)
          (2): ReLU(inplace=True)
          (3): Conv2d(244, 244, kernel_size=(3, 3), stride=(1, 1), padding=(1, 1), groups=244, bias=False)
          (4): BatchNorm2d(244, eps=1e-05, momentum=0.1, affine=True, track_running_stats=True)
          (5): Conv2d(244, 244, kernel_size=(1, 1), stride=(1, 1), bias=False)
          (6): BatchNorm2d(244, eps=1e-05, momentum=0.1, affine=True, track_running_stats=True)
          (7): ReLU(inplace=True)
        )
      )
      (6): InvertedResidual(
        (branch1): Sequential()
        (branch2): Sequential(
          (0): Conv2d(244, 244, kernel_size=(1, 1), stride=(1, 1), bias=False)
          (1): BatchNorm2d(244, eps=1e-05, momentum=0.1, affine=True, track_running_stats=True)
          (2): ReLU(inplace=True)
          (3): Conv2d(244, 244, kernel_size=(3, 3), stride=(1, 1), padding=(1, 1), groups=244, bias=False)
          (4): BatchNorm2d(244, eps=1e-05, momentum=0.1, affine=True, track_running_stats=True)
          (5): Conv2d(244, 244, kernel_size=(1, 1), stride=(1, 1), bias=False)
          (6): BatchNorm2d(244, eps=1e-05, momentum=0.1, affine=True, track_running_stats=True)
          (7): ReLU(inplace=True)
        )
      )
      (7): InvertedResidual(
        (branch1): Sequential()
        (branch2): Sequential(
          (0): Conv2d(244, 244, kernel_size=(1, 1), stride=(1, 1), bias=False)
          (1): BatchNorm2d(244, eps=1e-05, momentum=0.1, affine=True, track_running_stats=True)
          (2): ReLU(inplace=True)
          (3): Conv2d(244, 244, kernel_size=(3, 3), stride=(1, 1), padding=(1, 1), groups=244, bias=False)
          (4): BatchNorm2d(244, eps=1e-05, momentum=0.1, affine=True, track_running_stats=True)
          (5): Conv2d(244, 244, kernel_size=(1, 1), stride=(1, 1), bias=False)
          (6): BatchNorm2d(244, eps=1e-05, momentum=0.1, affine=True, track_running_stats=True)
          (7): ReLU(inplace=True)
        )
      )
    )
    (stage4): Sequential(
      (0): InvertedResidual(
        (branch1): Sequential(
          (0): Conv2d(488, 488, kernel_size=(3, 3), stride=(2, 2), padding=(1, 1), groups=488, bias=False)
          (1): BatchNorm2d(488, eps=1e-05, momentum=0.1, affine=True, track_running_stats=True)
          (2): Conv2d(488, 488, kernel_size=(1, 1), stride=(1, 1), bias=False)
          (3): BatchNorm2d(488, eps=1e-05, momentum=0.1, affine=True, track_running_stats=True)
          (4): ReLU(inplace=True)
        )
        (branch2): Sequential(
          (0): Conv2d(488, 488, kernel_size=(1, 1), stride=(1, 1), bias=False)
          (1): BatchNorm2d(488, eps=1e-05, momentum=0.1, affine=True, track_running_stats=True)
          (2): ReLU(inplace=True)
          (3): Conv2d(488, 488, kernel_size=(3, 3), stride=(2, 2), padding=(1, 1), groups=488, bias=False)
          (4): BatchNorm2d(488, eps=1e-05, momentum=0.1, affine=True, track_running_stats=True)
          (5): Conv2d(488, 488, kernel_size=(1, 1), stride=(1, 1), bias=False)
          (6): BatchNorm2d(488, eps=1e-05, momentum=0.1, affine=True, track_running_stats=True)
          (7): ReLU(inplace=True)
        )
      )
      (1): InvertedResidual(
        (branch1): Sequential()
        (branch2): Sequential(
          (0): Conv2d(488, 488, kernel_size=(1, 1), stride=(1, 1), bias=False)
          (1): BatchNorm2d(488, eps=1e-05, momentum=0.1, affine=True, track_running_stats=True)
          (2): ReLU(inplace=True)
          (3): Conv2d(488, 488, kernel_size=(3, 3), stride=(1, 1), padding=(1, 1), groups=488, bias=False)
          (4): BatchNorm2d(488, eps=1e-05, momentum=0.1, affine=True, track_running_stats=True)
          (5): Conv2d(488, 488, kernel_size=(1, 1), stride=(1, 1), bias=False)
          (6): BatchNorm2d(488, eps=1e-05, momentum=0.1, affine=True, track_running_stats=True)
          (7): ReLU(inplace=True)
        )
      )
      (2): InvertedResidual(
        (branch1): Sequential()
        (branch2): Sequential(
          (0): Conv2d(488, 488, kernel_size=(1, 1), stride=(1, 1), bias=False)
          (1): BatchNorm2d(488, eps=1e-05, momentum=0.1, affine=True, track_running_stats=True)
          (2): ReLU(inplace=True)
          (3): Conv2d(488, 488, kernel_size=(3, 3), stride=(1, 1), padding=(1, 1), groups=488, bias=False)
          (4): BatchNorm2d(488, eps=1e-05, momentum=0.1, affine=True, track_running_stats=True)
          (5): Conv2d(488, 488, kernel_size=(1, 1), stride=(1, 1), bias=False)
          (6): BatchNorm2d(488, eps=1e-05, momentum=0.1, affine=True, track_running_stats=True)
          (7): ReLU(inplace=True)
        )
      )
      (3): InvertedResidual(
        (branch1): Sequential()
        (branch2): Sequential(
          (0): Conv2d(488, 488, kernel_size=(1, 1), stride=(1, 1), bias=False)
          (1): BatchNorm2d(488, eps=1e-05, momentum=0.1, affine=True, track_running_stats=True)
          (2): ReLU(inplace=True)
          (3): Conv2d(488, 488, kernel_size=(3, 3), stride=(1, 1), padding=(1, 1), groups=488, bias=False)
          (4): BatchNorm2d(488, eps=1e-05, momentum=0.1, affine=True, track_running_stats=True)
          (5): Conv2d(488, 488, kernel_size=(1, 1), stride=(1, 1), bias=False)
          (6): BatchNorm2d(488, eps=1e-05, momentum=0.1, affine=True, track_running_stats=True)
          (7): ReLU(inplace=True)
        )
      )
    )
    (conv5): Sequential(
      (0): Conv2d(976, 2048, kernel_size=(1, 1), stride=(1, 1), bias=False)
      (1): BatchNorm2d(2048, eps=1e-05, momentum=0.1, affine=True, track_running_stats=True)
      (2): ReLU(inplace=True)
    )
    (fc): Linear(in_features=2048, out_features=1000, bias=True)
  )
)
Sat Jun  3 02:04:04 2023 : torch.cuda.memory_allocated(): 29774336
Sat Jun  3 02:04:04 2023 : torch.cuda.memory_cached(): 35651584
Sat Jun  3 02:04:04 2023 : torch.cuda.synchronize(): None
Sat Jun  3 02:04:04 2023 : model: SHUFFLENET(
  (net): ShuffleNetV2(
    (conv1): Sequential(
      (0): Conv2d(3, 24, kernel_size=(3, 3), stride=(2, 2), padding=(1, 1), bias=False)
      (1): BatchNorm2d(24, eps=1e-05, momentum=0.1, affine=True, track_running_stats=True)
      (2): ReLU(inplace=True)
    )
    (maxpool): MaxPool2d(kernel_size=3, stride=2, padding=1, dilation=1, ceil_mode=False)
    (stage2): Sequential(
      (0): InvertedResidual(
        (branch1): Sequential(
          (0): Conv2d(24, 24, kernel_size=(3, 3), stride=(2, 2), padding=(1, 1), groups=24, bias=False)
          (1): BatchNorm2d(24, eps=1e-05, momentum=0.1, affine=True, track_running_stats=True)
          (2): Conv2d(24, 122, kernel_size=(1, 1), stride=(1, 1), bias=False)
          (3): BatchNorm2d(122, eps=1e-05, momentum=0.1, affine=True, track_running_stats=True)
          (4): ReLU(inplace=True)
        )
        (branch2): Sequential(
          (0): Conv2d(24, 122, kernel_size=(1, 1), stride=(1, 1), bias=False)
          (1): BatchNorm2d(122, eps=1e-05, momentum=0.1, affine=True, track_running_stats=True)
          (2): ReLU(inplace=True)
          (3): Conv2d(122, 122, kernel_size=(3, 3), stride=(2, 2), padding=(1, 1), groups=122, bias=False)
          (4): BatchNorm2d(122, eps=1e-05, momentum=0.1, affine=True, track_running_stats=True)
          (5): Conv2d(122, 122, kernel_size=(1, 1), stride=(1, 1), bias=False)
          (6): BatchNorm2d(122, eps=1e-05, momentum=0.1, affine=True, track_running_stats=True)
          (7): ReLU(inplace=True)
        )
      )
      (1): InvertedResidual(
        (branch1): Sequential()
        (branch2): Sequential(
          (0): Conv2d(122, 122, kernel_size=(1, 1), stride=(1, 1), bias=False)
          (1): BatchNorm2d(122, eps=1e-05, momentum=0.1, affine=True, track_running_stats=True)
          (2): ReLU(inplace=True)
          (3): Conv2d(122, 122, kernel_size=(3, 3), stride=(1, 1), padding=(1, 1), groups=122, bias=False)
          (4): BatchNorm2d(122, eps=1e-05, momentum=0.1, affine=True, track_running_stats=True)
          (5): Conv2d(122, 122, kernel_size=(1, 1), stride=(1, 1), bias=False)
          (6): BatchNorm2d(122, eps=1e-05, momentum=0.1, affine=True, track_running_stats=True)
          (7): ReLU(inplace=True)
        )
      )
      (2): InvertedResidual(
        (branch1): Sequential()
        (branch2): Sequential(
          (0): Conv2d(122, 122, kernel_size=(1, 1), stride=(1, 1), bias=False)
          (1): BatchNorm2d(122, eps=1e-05, momentum=0.1, affine=True, track_running_stats=True)
          (2): ReLU(inplace=True)
          (3): Conv2d(122, 122, kernel_size=(3, 3), stride=(1, 1), padding=(1, 1), groups=122, bias=False)
          (4): BatchNorm2d(122, eps=1e-05, momentum=0.1, affine=True, track_running_stats=True)
          (5): Conv2d(122, 122, kernel_size=(1, 1), stride=(1, 1), bias=False)
          (6): BatchNorm2d(122, eps=1e-05, momentum=0.1, affine=True, track_running_stats=True)
          (7): ReLU(inplace=True)
        )
      )
      (3): InvertedResidual(
        (branch1): Sequential()
        (branch2): Sequential(
          (0): Conv2d(122, 122, kernel_size=(1, 1), stride=(1, 1), bias=False)
          (1): BatchNorm2d(122, eps=1e-05, momentum=0.1, affine=True, track_running_stats=True)
          (2): ReLU(inplace=True)
          (3): Conv2d(122, 122, kernel_size=(3, 3), stride=(1, 1), padding=(1, 1), groups=122, bias=False)
          (4): BatchNorm2d(122, eps=1e-05, momentum=0.1, affine=True, track_running_stats=True)
          (5): Conv2d(122, 122, kernel_size=(1, 1), stride=(1, 1), bias=False)
          (6): BatchNorm2d(122, eps=1e-05, momentum=0.1, affine=True, track_running_stats=True)
          (7): ReLU(inplace=True)
        )
      )
    )
    (stage3): Sequential(
      (0): InvertedResidual(
        (branch1): Sequential(
          (0): Conv2d(244, 244, kernel_size=(3, 3), stride=(2, 2), padding=(1, 1), groups=244, bias=False)
          (1): BatchNorm2d(244, eps=1e-05, momentum=0.1, affine=True, track_running_stats=True)
          (2): Conv2d(244, 244, kernel_size=(1, 1), stride=(1, 1), bias=False)
          (3): BatchNorm2d(244, eps=1e-05, momentum=0.1, affine=True, track_running_stats=True)
          (4): ReLU(inplace=True)
        )
        (branch2): Sequential(
          (0): Conv2d(244, 244, kernel_size=(1, 1), stride=(1, 1), bias=False)
          (1): BatchNorm2d(244, eps=1e-05, momentum=0.1, affine=True, track_running_stats=True)
          (2): ReLU(inplace=True)
          (3): Conv2d(244, 244, kernel_size=(3, 3), stride=(2, 2), padding=(1, 1), groups=244, bias=False)
          (4): BatchNorm2d(244, eps=1e-05, momentum=0.1, affine=True, track_running_stats=True)
          (5): Conv2d(244, 244, kernel_size=(1, 1), stride=(1, 1), bias=False)
          (6): BatchNorm2d(244, eps=1e-05, momentum=0.1, affine=True, track_running_stats=True)
          (7): ReLU(inplace=True)
        )
      )
      (1): InvertedResidual(
        (branch1): Sequential()
        (branch2): Sequential(
          (0): Conv2d(244, 244, kernel_size=(1, 1), stride=(1, 1), bias=False)
          (1): BatchNorm2d(244, eps=1e-05, momentum=0.1, affine=True, track_running_stats=True)
          (2): ReLU(inplace=True)
          (3): Conv2d(244, 244, kernel_size=(3, 3), stride=(1, 1), padding=(1, 1), groups=244, bias=False)
          (4): BatchNorm2d(244, eps=1e-05, momentum=0.1, affine=True, track_running_stats=True)
          (5): Conv2d(244, 244, kernel_size=(1, 1), stride=(1, 1), bias=False)
          (6): BatchNorm2d(244, eps=1e-05, momentum=0.1, affine=True, track_running_stats=True)
          (7): ReLU(inplace=True)
        )
      )
      (2): InvertedResidual(
        (branch1): Sequential()
        (branch2): Sequential(
          (0): Conv2d(244, 244, kernel_size=(1, 1), stride=(1, 1), bias=False)
          (1): BatchNorm2d(244, eps=1e-05, momentum=0.1, affine=True, track_running_stats=True)
          (2): ReLU(inplace=True)
          (3): Conv2d(244, 244, kernel_size=(3, 3), stride=(1, 1), padding=(1, 1), groups=244, bias=False)
          (4): BatchNorm2d(244, eps=1e-05, momentum=0.1, affine=True, track_running_stats=True)
          (5): Conv2d(244, 244, kernel_size=(1, 1), stride=(1, 1), bias=False)
          (6): BatchNorm2d(244, eps=1e-05, momentum=0.1, affine=True, track_running_stats=True)
          (7): ReLU(inplace=True)
        )
      )
      (3): InvertedResidual(
        (branch1): Sequential()
        (branch2): Sequential(
          (0): Conv2d(244, 244, kernel_size=(1, 1), stride=(1, 1), bias=False)
          (1): BatchNorm2d(244, eps=1e-05, momentum=0.1, affine=True, track_running_stats=True)
          (2): ReLU(inplace=True)
          (3): Conv2d(244, 244, kernel_size=(3, 3), stride=(1, 1), padding=(1, 1), groups=244, bias=False)
          (4): BatchNorm2d(244, eps=1e-05, momentum=0.1, affine=True, track_running_stats=True)
          (5): Conv2d(244, 244, kernel_size=(1, 1), stride=(1, 1), bias=False)
          (6): BatchNorm2d(244, eps=1e-05, momentum=0.1, affine=True, track_running_stats=True)
          (7): ReLU(inplace=True)
        )
      )
      (4): InvertedResidual(
        (branch1): Sequential()
        (branch2): Sequential(
          (0): Conv2d(244, 244, kernel_size=(1, 1), stride=(1, 1), bias=False)
          (1): BatchNorm2d(244, eps=1e-05, momentum=0.1, affine=True, track_running_stats=True)
          (2): ReLU(inplace=True)
          (3): Conv2d(244, 244, kernel_size=(3, 3), stride=(1, 1), padding=(1, 1), groups=244, bias=False)
          (4): BatchNorm2d(244, eps=1e-05, momentum=0.1, affine=True, track_running_stats=True)
          (5): Conv2d(244, 244, kernel_size=(1, 1), stride=(1, 1), bias=False)
          (6): BatchNorm2d(244, eps=1e-05, momentum=0.1, affine=True, track_running_stats=True)
          (7): ReLU(inplace=True)
        )
      )
      (5): InvertedResidual(
        (branch1): Sequential()
        (branch2): Sequential(
          (0): Conv2d(244, 244, kernel_size=(1, 1), stride=(1, 1), bias=False)
          (1): BatchNorm2d(244, eps=1e-05, momentum=0.1, affine=True, track_running_stats=True)
          (2): ReLU(inplace=True)
          (3): Conv2d(244, 244, kernel_size=(3, 3), stride=(1, 1), padding=(1, 1), groups=244, bias=False)
          (4): BatchNorm2d(244, eps=1e-05, momentum=0.1, affine=True, track_running_stats=True)
          (5): Conv2d(244, 244, kernel_size=(1, 1), stride=(1, 1), bias=False)
          (6): BatchNorm2d(244, eps=1e-05, momentum=0.1, affine=True, track_running_stats=True)
          (7): ReLU(inplace=True)
        )
      )
      (6): InvertedResidual(
        (branch1): Sequential()
        (branch2): Sequential(
          (0): Conv2d(244, 244, kernel_size=(1, 1), stride=(1, 1), bias=False)
          (1): BatchNorm2d(244, eps=1e-05, momentum=0.1, affine=True, track_running_stats=True)
          (2): ReLU(inplace=True)
          (3): Conv2d(244, 244, kernel_size=(3, 3), stride=(1, 1), padding=(1, 1), groups=244, bias=False)
          (4): BatchNorm2d(244, eps=1e-05, momentum=0.1, affine=True, track_running_stats=True)
          (5): Conv2d(244, 244, kernel_size=(1, 1), stride=(1, 1), bias=False)
          (6): BatchNorm2d(244, eps=1e-05, momentum=0.1, affine=True, track_running_stats=True)
          (7): ReLU(inplace=True)
        )
      )
      (7): InvertedResidual(
        (branch1): Sequential()
        (branch2): Sequential(
          (0): Conv2d(244, 244, kernel_size=(1, 1), stride=(1, 1), bias=False)
          (1): BatchNorm2d(244, eps=1e-05, momentum=0.1, affine=True, track_running_stats=True)
          (2): ReLU(inplace=True)
          (3): Conv2d(244, 244, kernel_size=(3, 3), stride=(1, 1), padding=(1, 1), groups=244, bias=False)
          (4): BatchNorm2d(244, eps=1e-05, momentum=0.1, affine=True, track_running_stats=True)
          (5): Conv2d(244, 244, kernel_size=(1, 1), stride=(1, 1), bias=False)
          (6): BatchNorm2d(244, eps=1e-05, momentum=0.1, affine=True, track_running_stats=True)
          (7): ReLU(inplace=True)
        )
      )
    )
    (stage4): Sequential(
      (0): InvertedResidual(
        (branch1): Sequential(
          (0): Conv2d(488, 488, kernel_size=(3, 3), stride=(2, 2), padding=(1, 1), groups=488, bias=False)
          (1): BatchNorm2d(488, eps=1e-05, momentum=0.1, affine=True, track_running_stats=True)
          (2): Conv2d(488, 488, kernel_size=(1, 1), stride=(1, 1), bias=False)
          (3): BatchNorm2d(488, eps=1e-05, momentum=0.1, affine=True, track_running_stats=True)
          (4): ReLU(inplace=True)
        )
        (branch2): Sequential(
          (0): Conv2d(488, 488, kernel_size=(1, 1), stride=(1, 1), bias=False)
          (1): BatchNorm2d(488, eps=1e-05, momentum=0.1, affine=True, track_running_stats=True)
          (2): ReLU(inplace=True)
          (3): Conv2d(488, 488, kernel_size=(3, 3), stride=(2, 2), padding=(1, 1), groups=488, bias=False)
          (4): BatchNorm2d(488, eps=1e-05, momentum=0.1, affine=True, track_running_stats=True)
          (5): Conv2d(488, 488, kernel_size=(1, 1), stride=(1, 1), bias=False)
          (6): BatchNorm2d(488, eps=1e-05, momentum=0.1, affine=True, track_running_stats=True)
          (7): ReLU(inplace=True)
        )
      )
      (1): InvertedResidual(
        (branch1): Sequential()
        (branch2): Sequential(
          (0): Conv2d(488, 488, kernel_size=(1, 1), stride=(1, 1), bias=False)
          (1): BatchNorm2d(488, eps=1e-05, momentum=0.1, affine=True, track_running_stats=True)
          (2): ReLU(inplace=True)
          (3): Conv2d(488, 488, kernel_size=(3, 3), stride=(1, 1), padding=(1, 1), groups=488, bias=False)
          (4): BatchNorm2d(488, eps=1e-05, momentum=0.1, affine=True, track_running_stats=True)
          (5): Conv2d(488, 488, kernel_size=(1, 1), stride=(1, 1), bias=False)
          (6): BatchNorm2d(488, eps=1e-05, momentum=0.1, affine=True, track_running_stats=True)
          (7): ReLU(inplace=True)
        )
      )
      (2): InvertedResidual(
        (branch1): Sequential()
        (branch2): Sequential(
          (0): Conv2d(488, 488, kernel_size=(1, 1), stride=(1, 1), bias=False)
          (1): BatchNorm2d(488, eps=1e-05, momentum=0.1, affine=True, track_running_stats=True)
          (2): ReLU(inplace=True)
          (3): Conv2d(488, 488, kernel_size=(3, 3), stride=(1, 1), padding=(1, 1), groups=488, bias=False)
          (4): BatchNorm2d(488, eps=1e-05, momentum=0.1, affine=True, track_running_stats=True)
          (5): Conv2d(488, 488, kernel_size=(1, 1), stride=(1, 1), bias=False)
          (6): BatchNorm2d(488, eps=1e-05, momentum=0.1, affine=True, track_running_stats=True)
          (7): ReLU(inplace=True)
        )
      )
      (3): InvertedResidual(
        (branch1): Sequential()
        (branch2): Sequential(
          (0): Conv2d(488, 488, kernel_size=(1, 1), stride=(1, 1), bias=False)
          (1): BatchNorm2d(488, eps=1e-05, momentum=0.1, affine=True, track_running_stats=True)
          (2): ReLU(inplace=True)
          (3): Conv2d(488, 488, kernel_size=(3, 3), stride=(1, 1), padding=(1, 1), groups=488, bias=False)
          (4): BatchNorm2d(488, eps=1e-05, momentum=0.1, affine=True, track_running_stats=True)
          (5): Conv2d(488, 488, kernel_size=(1, 1), stride=(1, 1), bias=False)
          (6): BatchNorm2d(488, eps=1e-05, momentum=0.1, affine=True, track_running_stats=True)
          (7): ReLU(inplace=True)
        )
      )
    )
    (conv5): Sequential(
      (0): Conv2d(976, 2048, kernel_size=(1, 1), stride=(1, 1), bias=False)
      (1): BatchNorm2d(2048, eps=1e-05, momentum=0.1, affine=True, track_running_stats=True)
      (2): ReLU(inplace=True)
    )
    (fc): Linear(in_features=2048, out_features=1000, bias=True)
  )
)
Sat Jun  3 02:04:04 2023 : torch.cuda.memory_allocated(): 29774336
Sat Jun  3 02:04:04 2023 : torch.cuda.memory_cached(): 35651584
Sat Jun  3 02:04:04 2023 : torch.cuda.synchronize(): None
Sat Jun  3 02:04:05 2023 : Worker on node 4: process started
Sat Jun  3 02:04:05 2023 : Worker on node 2: process started
Sat Jun  3 02:04:05 2023 : Worker on node 3: process started
Sat Jun  3 02:04:07 2023 : model: SHUFFLENET(
  (net): ShuffleNetV2(
    (conv1): Sequential(
      (0): Conv2d(3, 24, kernel_size=(3, 3), stride=(2, 2), padding=(1, 1), bias=False)
      (1): BatchNorm2d(24, eps=1e-05, momentum=0.1, affine=True, track_running_stats=True)
      (2): ReLU(inplace=True)
    )
    (maxpool): MaxPool2d(kernel_size=3, stride=2, padding=1, dilation=1, ceil_mode=False)
    (stage2): Sequential(
      (0): InvertedResidual(
        (branch1): Sequential(
          (0): Conv2d(24, 24, kernel_size=(3, 3), stride=(2, 2), padding=(1, 1), groups=24, bias=False)
          (1): BatchNorm2d(24, eps=1e-05, momentum=0.1, affine=True, track_running_stats=True)
          (2): Conv2d(24, 122, kernel_size=(1, 1), stride=(1, 1), bias=False)
          (3): BatchNorm2d(122, eps=1e-05, momentum=0.1, affine=True, track_running_stats=True)
          (4): ReLU(inplace=True)
        )
        (branch2): Sequential(
          (0): Conv2d(24, 122, kernel_size=(1, 1), stride=(1, 1), bias=False)
          (1): BatchNorm2d(122, eps=1e-05, momentum=0.1, affine=True, track_running_stats=True)
          (2): ReLU(inplace=True)
          (3): Conv2d(122, 122, kernel_size=(3, 3), stride=(2, 2), padding=(1, 1), groups=122, bias=False)
          (4): BatchNorm2d(122, eps=1e-05, momentum=0.1, affine=True, track_running_stats=True)
          (5): Conv2d(122, 122, kernel_size=(1, 1), stride=(1, 1), bias=False)
          (6): BatchNorm2d(122, eps=1e-05, momentum=0.1, affine=True, track_running_stats=True)
          (7): ReLU(inplace=True)
        )
      )
      (1): InvertedResidual(
        (branch1): Sequential()
        (branch2): Sequential(
          (0): Conv2d(122, 122, kernel_size=(1, 1), stride=(1, 1), bias=False)
          (1): BatchNorm2d(122, eps=1e-05, momentum=0.1, affine=True, track_running_stats=True)
          (2): ReLU(inplace=True)
          (3): Conv2d(122, 122, kernel_size=(3, 3), stride=(1, 1), padding=(1, 1), groups=122, bias=False)
          (4): BatchNorm2d(122, eps=1e-05, momentum=0.1, affine=True, track_running_stats=True)
          (5): Conv2d(122, 122, kernel_size=(1, 1), stride=(1, 1), bias=False)
          (6): BatchNorm2d(122, eps=1e-05, momentum=0.1, affine=True, track_running_stats=True)
          (7): ReLU(inplace=True)
        )
      )
      (2): InvertedResidual(
        (branch1): Sequential()
        (branch2): Sequential(
          (0): Conv2d(122, 122, kernel_size=(1, 1), stride=(1, 1), bias=False)
          (1): BatchNorm2d(122, eps=1e-05, momentum=0.1, affine=True, track_running_stats=True)
          (2): ReLU(inplace=True)
          (3): Conv2d(122, 122, kernel_size=(3, 3), stride=(1, 1), padding=(1, 1), groups=122, bias=False)
          (4): BatchNorm2d(122, eps=1e-05, momentum=0.1, affine=True, track_running_stats=True)
          (5): Conv2d(122, 122, kernel_size=(1, 1), stride=(1, 1), bias=False)
          (6): BatchNorm2d(122, eps=1e-05, momentum=0.1, affine=True, track_running_stats=True)
          (7): ReLU(inplace=True)
        )
      )
      (3): InvertedResidual(
        (branch1): Sequential()
        (branch2): Sequential(
          (0): Conv2d(122, 122, kernel_size=(1, 1), stride=(1, 1), bias=False)
          (1): BatchNorm2d(122, eps=1e-05, momentum=0.1, affine=True, track_running_stats=True)
          (2): ReLU(inplace=True)
          (3): Conv2d(122, 122, kernel_size=(3, 3), stride=(1, 1), padding=(1, 1), groups=122, bias=False)
          (4): BatchNorm2d(122, eps=1e-05, momentum=0.1, affine=True, track_running_stats=True)
          (5): Conv2d(122, 122, kernel_size=(1, 1), stride=(1, 1), bias=False)
          (6): BatchNorm2d(122, eps=1e-05, momentum=0.1, affine=True, track_running_stats=True)
          (7): ReLU(inplace=True)
        )
      )
    )
    (stage3): Sequential(
      (0): InvertedResidual(
        (branch1): Sequential(
          (0): Conv2d(244, 244, kernel_size=(3, 3), stride=(2, 2), padding=(1, 1), groups=244, bias=False)
          (1): BatchNorm2d(244, eps=1e-05, momentum=0.1, affine=True, track_running_stats=True)
          (2): Conv2d(244, 244, kernel_size=(1, 1), stride=(1, 1), bias=False)
          (3): BatchNorm2d(244, eps=1e-05, momentum=0.1, affine=True, track_running_stats=True)
          (4): ReLU(inplace=True)
        )
        (branch2): Sequential(
          (0): Conv2d(244, 244, kernel_size=(1, 1), stride=(1, 1), bias=False)
          (1): BatchNorm2d(244, eps=1e-05, momentum=0.1, affine=True, track_running_stats=True)
          (2): ReLU(inplace=True)
          (3): Conv2d(244, 244, kernel_size=(3, 3), stride=(2, 2), padding=(1, 1), groups=244, bias=False)
          (4): BatchNorm2d(244, eps=1e-05, momentum=0.1, affine=True, track_running_stats=True)
          (5): Conv2d(244, 244, kernel_size=(1, 1), stride=(1, 1), bias=False)
          (6): BatchNorm2d(244, eps=1e-05, momentum=0.1, affine=True, track_running_stats=True)
          (7): ReLU(inplace=True)
        )
      )
      (1): InvertedResidual(
        (branch1): Sequential()
        (branch2): Sequential(
          (0): Conv2d(244, 244, kernel_size=(1, 1), stride=(1, 1), bias=False)
          (1): BatchNorm2d(244, eps=1e-05, momentum=0.1, affine=True, track_running_stats=True)
          (2): ReLU(inplace=True)
          (3): Conv2d(244, 244, kernel_size=(3, 3), stride=(1, 1), padding=(1, 1), groups=244, bias=False)
          (4): BatchNorm2d(244, eps=1e-05, momentum=0.1, affine=True, track_running_stats=True)
          (5): Conv2d(244, 244, kernel_size=(1, 1), stride=(1, 1), bias=False)
          (6): BatchNorm2d(244, eps=1e-05, momentum=0.1, affine=True, track_running_stats=True)
          (7): ReLU(inplace=True)
        )
      )
      (2): InvertedResidual(
        (branch1): Sequential()
        (branch2): Sequential(
          (0): Conv2d(244, 244, kernel_size=(1, 1), stride=(1, 1), bias=False)
          (1): BatchNorm2d(244, eps=1e-05, momentum=0.1, affine=True, track_running_stats=True)
          (2): ReLU(inplace=True)
          (3): Conv2d(244, 244, kernel_size=(3, 3), stride=(1, 1), padding=(1, 1), groups=244, bias=False)
          (4): BatchNorm2d(244, eps=1e-05, momentum=0.1, affine=True, track_running_stats=True)
          (5): Conv2d(244, 244, kernel_size=(1, 1), stride=(1, 1), bias=False)
          (6): BatchNorm2d(244, eps=1e-05, momentum=0.1, affine=True, track_running_stats=True)
          (7): ReLU(inplace=True)
        )
      )
      (3): InvertedResidual(
        (branch1): Sequential()
        (branch2): Sequential(
          (0): Conv2d(244, 244, kernel_size=(1, 1), stride=(1, 1), bias=False)
          (1): BatchNorm2d(244, eps=1e-05, momentum=0.1, affine=True, track_running_stats=True)
          (2): ReLU(inplace=True)
          (3): Conv2d(244, 244, kernel_size=(3, 3), stride=(1, 1), padding=(1, 1), groups=244, bias=False)
          (4): BatchNorm2d(244, eps=1e-05, momentum=0.1, affine=True, track_running_stats=True)
          (5): Conv2d(244, 244, kernel_size=(1, 1), stride=(1, 1), bias=False)
          (6): BatchNorm2d(244, eps=1e-05, momentum=0.1, affine=True, track_running_stats=True)
          (7): ReLU(inplace=True)
        )
      )
      (4): InvertedResidual(
        (branch1): Sequential()
        (branch2): Sequential(
          (0): Conv2d(244, 244, kernel_size=(1, 1), stride=(1, 1), bias=False)
          (1): BatchNorm2d(244, eps=1e-05, momentum=0.1, affine=True, track_running_stats=True)
          (2): ReLU(inplace=True)
          (3): Conv2d(244, 244, kernel_size=(3, 3), stride=(1, 1), padding=(1, 1), groups=244, bias=False)
          (4): BatchNorm2d(244, eps=1e-05, momentum=0.1, affine=True, track_running_stats=True)
          (5): Conv2d(244, 244, kernel_size=(1, 1), stride=(1, 1), bias=False)
          (6): BatchNorm2d(244, eps=1e-05, momentum=0.1, affine=True, track_running_stats=True)
          (7): ReLU(inplace=True)
        )
      )
      (5): InvertedResidual(
        (branch1): Sequential()
        (branch2): Sequential(
          (0): Conv2d(244, 244, kernel_size=(1, 1), stride=(1, 1), bias=False)
          (1): BatchNorm2d(244, eps=1e-05, momentum=0.1, affine=True, track_running_stats=True)
          (2): ReLU(inplace=True)
          (3): Conv2d(244, 244, kernel_size=(3, 3), stride=(1, 1), padding=(1, 1), groups=244, bias=False)
          (4): BatchNorm2d(244, eps=1e-05, momentum=0.1, affine=True, track_running_stats=True)
          (5): Conv2d(244, 244, kernel_size=(1, 1), stride=(1, 1), bias=False)
          (6): BatchNorm2d(244, eps=1e-05, momentum=0.1, affine=True, track_running_stats=True)
          (7): ReLU(inplace=True)
        )
      )
      (6): InvertedResidual(
        (branch1): Sequential()
        (branch2): Sequential(
          (0): Conv2d(244, 244, kernel_size=(1, 1), stride=(1, 1), bias=False)
          (1): BatchNorm2d(244, eps=1e-05, momentum=0.1, affine=True, track_running_stats=True)
          (2): ReLU(inplace=True)
          (3): Conv2d(244, 244, kernel_size=(3, 3), stride=(1, 1), padding=(1, 1), groups=244, bias=False)
          (4): BatchNorm2d(244, eps=1e-05, momentum=0.1, affine=True, track_running_stats=True)
          (5): Conv2d(244, 244, kernel_size=(1, 1), stride=(1, 1), bias=False)
          (6): BatchNorm2d(244, eps=1e-05, momentum=0.1, affine=True, track_running_stats=True)
          (7): ReLU(inplace=True)
        )
      )
      (7): InvertedResidual(
        (branch1): Sequential()
        (branch2): Sequential(
          (0): Conv2d(244, 244, kernel_size=(1, 1), stride=(1, 1), bias=False)
          (1): BatchNorm2d(244, eps=1e-05, momentum=0.1, affine=True, track_running_stats=True)
          (2): ReLU(inplace=True)
          (3): Conv2d(244, 244, kernel_size=(3, 3), stride=(1, 1), padding=(1, 1), groups=244, bias=False)
          (4): BatchNorm2d(244, eps=1e-05, momentum=0.1, affine=True, track_running_stats=True)
          (5): Conv2d(244, 244, kernel_size=(1, 1), stride=(1, 1), bias=False)
          (6): BatchNorm2d(244, eps=1e-05, momentum=0.1, affine=True, track_running_stats=True)
          (7): ReLU(inplace=True)
        )
      )
    )
    (stage4): Sequential(
      (0): InvertedResidual(
        (branch1): Sequential(
          (0): Conv2d(488, 488, kernel_size=(3, 3), stride=(2, 2), padding=(1, 1), groups=488, bias=False)
          (1): BatchNorm2d(488, eps=1e-05, momentum=0.1, affine=True, track_running_stats=True)
          (2): Conv2d(488, 488, kernel_size=(1, 1), stride=(1, 1), bias=False)
          (3): BatchNorm2d(488, eps=1e-05, momentum=0.1, affine=True, track_running_stats=True)
          (4): ReLU(inplace=True)
        )
        (branch2): Sequential(
          (0): Conv2d(488, 488, kernel_size=(1, 1), stride=(1, 1), bias=False)
          (1): BatchNorm2d(488, eps=1e-05, momentum=0.1, affine=True, track_running_stats=True)
          (2): ReLU(inplace=True)
          (3): Conv2d(488, 488, kernel_size=(3, 3), stride=(2, 2), padding=(1, 1), groups=488, bias=False)
          (4): BatchNorm2d(488, eps=1e-05, momentum=0.1, affine=True, track_running_stats=True)
          (5): Conv2d(488, 488, kernel_size=(1, 1), stride=(1, 1), bias=False)
          (6): BatchNorm2d(488, eps=1e-05, momentum=0.1, affine=True, track_running_stats=True)
          (7): ReLU(inplace=True)
        )
      )
      (1): InvertedResidual(
        (branch1): Sequential()
        (branch2): Sequential(
          (0): Conv2d(488, 488, kernel_size=(1, 1), stride=(1, 1), bias=False)
          (1): BatchNorm2d(488, eps=1e-05, momentum=0.1, affine=True, track_running_stats=True)
          (2): ReLU(inplace=True)
          (3): Conv2d(488, 488, kernel_size=(3, 3), stride=(1, 1), padding=(1, 1), groups=488, bias=False)
          (4): BatchNorm2d(488, eps=1e-05, momentum=0.1, affine=True, track_running_stats=True)
          (5): Conv2d(488, 488, kernel_size=(1, 1), stride=(1, 1), bias=False)
          (6): BatchNorm2d(488, eps=1e-05, momentum=0.1, affine=True, track_running_stats=True)
          (7): ReLU(inplace=True)
        )
      )
      (2): InvertedResidual(
        (branch1): Sequential()
        (branch2): Sequential(
          (0): Conv2d(488, 488, kernel_size=(1, 1), stride=(1, 1), bias=False)
          (1): BatchNorm2d(488, eps=1e-05, momentum=0.1, affine=True, track_running_stats=True)
          (2): ReLU(inplace=True)
          (3): Conv2d(488, 488, kernel_size=(3, 3), stride=(1, 1), padding=(1, 1), groups=488, bias=False)
          (4): BatchNorm2d(488, eps=1e-05, momentum=0.1, affine=True, track_running_stats=True)
          (5): Conv2d(488, 488, kernel_size=(1, 1), stride=(1, 1), bias=False)
          (6): BatchNorm2d(488, eps=1e-05, momentum=0.1, affine=True, track_running_stats=True)
          (7): ReLU(inplace=True)
        )
      )
      (3): InvertedResidual(
        (branch1): Sequential()
        (branch2): Sequential(
          (0): Conv2d(488, 488, kernel_size=(1, 1), stride=(1, 1), bias=False)
          (1): BatchNorm2d(488, eps=1e-05, momentum=0.1, affine=True, track_running_stats=True)
          (2): ReLU(inplace=True)
          (3): Conv2d(488, 488, kernel_size=(3, 3), stride=(1, 1), padding=(1, 1), groups=488, bias=False)
          (4): BatchNorm2d(488, eps=1e-05, momentum=0.1, affine=True, track_running_stats=True)
          (5): Conv2d(488, 488, kernel_size=(1, 1), stride=(1, 1), bias=False)
          (6): BatchNorm2d(488, eps=1e-05, momentum=0.1, affine=True, track_running_stats=True)
          (7): ReLU(inplace=True)
        )
      )
    )
    (conv5): Sequential(
      (0): Conv2d(976, 2048, kernel_size=(1, 1), stride=(1, 1), bias=False)
      (1): BatchNorm2d(2048, eps=1e-05, momentum=0.1, affine=True, track_running_stats=True)
      (2): ReLU(inplace=True)
    )
    (fc): Linear(in_features=2048, out_features=1000, bias=True)
  )
)
Sat Jun  3 02:04:07 2023 : torch.cuda.memory_allocated(): 29774336
Sat Jun  3 02:04:07 2023 : torch.cuda.memory_cached(): 35651584
Sat Jun  3 02:04:07 2023 : torch.cuda.synchronize(): None
Sat Jun  3 02:04:08 2023 : Server data preparation
Sat Jun  3 02:04:08 2023 : Prepared the dataloaders
Sat Jun  3 02:04:08 2023 : Loading Model from: None
Sat Jun  3 02:04:08 2023 : Using fast aggregation
…
Attempted to log scalar metric server_config.annealing_config.step_size:
5000000
Sat Jun  3 02:04:08 2023 : Launching server
Sat Jun  3 02:04:08 2023 : server started
Attempted to log scalar metric Max iterations:
100
Sat Jun  3 02:04:08 2023 : Running [] at itr=0
Sat Jun  3 02:04:08 2023 : Saving Model Before Starting Training
Sat Jun  3 02:04:08 2023 : Saving model to: /nfs-share/aai30/projects/msrflute_ex/outputs/openImg/files/2023-06-03 02:03:53.467877/f23c-46f8/models/best_val_loss_model.tar
Sat Jun  3 02:04:08 2023 : model: SHUFFLENET(
  (net): ShuffleNetV2(
    (conv1): Sequential(
      (0): Conv2d(3, 24, kernel_size=(3, 3), stride=(2, 2), padding=(1, 1), bias=False)
      (1): BatchNorm2d(24, eps=1e-05, momentum=0.1, affine=True, track_running_stats=True)
      (2): ReLU(inplace=True)
    )
    (maxpool): MaxPool2d(kernel_size=3, stride=2, padding=1, dilation=1, ceil_mode=False)
    (stage2): Sequential(
      (0): InvertedResidual(
        (branch1): Sequential(
          (0): Conv2d(24, 24, kernel_size=(3, 3), stride=(2, 2), padding=(1, 1), groups=24, bias=False)
          (1): BatchNorm2d(24, eps=1e-05, momentum=0.1, affine=True, track_running_stats=True)
          (2): Conv2d(24, 122, kernel_size=(1, 1), stride=(1, 1), bias=False)
          (3): BatchNorm2d(122, eps=1e-05, momentum=0.1, affine=True, track_running_stats=True)
          (4): ReLU(inplace=True)
        )
        (branch2): Sequential(
          (0): Conv2d(24, 122, kernel_size=(1, 1), stride=(1, 1), bias=False)
          (1): BatchNorm2d(122, eps=1e-05, momentum=0.1, affine=True, track_running_stats=True)
          (2): ReLU(inplace=True)
          (3): Conv2d(122, 122, kernel_size=(3, 3), stride=(2, 2), padding=(1, 1), groups=122, bias=False)
          (4): BatchNorm2d(122, eps=1e-05, momentum=0.1, affine=True, track_running_stats=True)
          (5): Conv2d(122, 122, kernel_size=(1, 1), stride=(1, 1), bias=False)
          (6): BatchNorm2d(122, eps=1e-05, momentum=0.1, affine=True, track_running_stats=True)
          (7): ReLU(inplace=True)
        )
      )
      (1): InvertedResidual(
        (branch1): Sequential()
        (branch2): Sequential(
          (0): Conv2d(122, 122, kernel_size=(1, 1), stride=(1, 1), bias=False)
          (1): BatchNorm2d(122, eps=1e-05, momentum=0.1, affine=True, track_running_stats=True)
          (2): ReLU(inplace=True)
          (3): Conv2d(122, 122, kernel_size=(3, 3), stride=(1, 1), padding=(1, 1), groups=122, bias=False)
          (4): BatchNorm2d(122, eps=1e-05, momentum=0.1, affine=True, track_running_stats=True)
          (5): Conv2d(122, 122, kernel_size=(1, 1), stride=(1, 1), bias=False)
          (6): BatchNorm2d(122, eps=1e-05, momentum=0.1, affine=True, track_running_stats=True)
          (7): ReLU(inplace=True)
        )
      )
      (2): InvertedResidual(
        (branch1): Sequential()
        (branch2): Sequential(
          (0): Conv2d(122, 122, kernel_size=(1, 1), stride=(1, 1), bias=False)
          (1): BatchNorm2d(122, eps=1e-05, momentum=0.1, affine=True, track_running_stats=True)
          (2): ReLU(inplace=True)
          (3): Conv2d(122, 122, kernel_size=(3, 3), stride=(1, 1), padding=(1, 1), groups=122, bias=False)
          (4): BatchNorm2d(122, eps=1e-05, momentum=0.1, affine=True, track_running_stats=True)
          (5): Conv2d(122, 122, kernel_size=(1, 1), stride=(1, 1), bias=False)
          (6): BatchNorm2d(122, eps=1e-05, momentum=0.1, affine=True, track_running_stats=True)
          (7): ReLU(inplace=True)
        )
      )
      (3): InvertedResidual(
        (branch1): Sequential()
        (branch2): Sequential(
          (0): Conv2d(122, 122, kernel_size=(1, 1), stride=(1, 1), bias=False)
          (1): BatchNorm2d(122, eps=1e-05, momentum=0.1, affine=True, track_running_stats=True)
          (2): ReLU(inplace=True)
          (3): Conv2d(122, 122, kernel_size=(3, 3), stride=(1, 1), padding=(1, 1), groups=122, bias=False)
          (4): BatchNorm2d(122, eps=1e-05, momentum=0.1, affine=True, track_running_stats=True)
          (5): Conv2d(122, 122, kernel_size=(1, 1), stride=(1, 1), bias=False)
          (6): BatchNorm2d(122, eps=1e-05, momentum=0.1, affine=True, track_running_stats=True)
          (7): ReLU(inplace=True)
        )
      )
    )
    (stage3): Sequential(
      (0): InvertedResidual(
        (branch1): Sequential(
          (0): Conv2d(244, 244, kernel_size=(3, 3), stride=(2, 2), padding=(1, 1), groups=244, bias=False)
          (1): BatchNorm2d(244, eps=1e-05, momentum=0.1, affine=True, track_running_stats=True)
          (2): Conv2d(244, 244, kernel_size=(1, 1), stride=(1, 1), bias=False)
          (3): BatchNorm2d(244, eps=1e-05, momentum=0.1, affine=True, track_running_stats=True)
          (4): ReLU(inplace=True)
        )
        (branch2): Sequential(
          (0): Conv2d(244, 244, kernel_size=(1, 1), stride=(1, 1), bias=False)
          (1): BatchNorm2d(244, eps=1e-05, momentum=0.1, affine=True, track_running_stats=True)
          (2): ReLU(inplace=True)
          (3): Conv2d(244, 244, kernel_size=(3, 3), stride=(2, 2), padding=(1, 1), groups=244, bias=False)
          (4): BatchNorm2d(244, eps=1e-05, momentum=0.1, affine=True, track_running_stats=True)
          (5): Conv2d(244, 244, kernel_size=(1, 1), stride=(1, 1), bias=False)
          (6): BatchNorm2d(244, eps=1e-05, momentum=0.1, affine=True, track_running_stats=True)
          (7): ReLU(inplace=True)
        )
      )
      (1): InvertedResidual(
        (branch1): Sequential()
        (branch2): Sequential(
          (0): Conv2d(244, 244, kernel_size=(1, 1), stride=(1, 1), bias=False)
          (1): BatchNorm2d(244, eps=1e-05, momentum=0.1, affine=True, track_running_stats=True)
          (2): ReLU(inplace=True)
          (3): Conv2d(244, 244, kernel_size=(3, 3), stride=(1, 1), padding=(1, 1), groups=244, bias=False)
          (4): BatchNorm2d(244, eps=1e-05, momentum=0.1, affine=True, track_running_stats=True)
          (5): Conv2d(244, 244, kernel_size=(1, 1), stride=(1, 1), bias=False)
          (6): BatchNorm2d(244, eps=1e-05, momentum=0.1, affine=True, track_running_stats=True)
          (7): ReLU(inplace=True)
        )
      )
      (2): InvertedResidual(
        (branch1): Sequential()
        (branch2): Sequential(
          (0): Conv2d(244, 244, kernel_size=(1, 1), stride=(1, 1), bias=False)
          (1): BatchNorm2d(244, eps=1e-05, momentum=0.1, affine=True, track_running_stats=True)
          (2): ReLU(inplace=True)
          (3): Conv2d(244, 244, kernel_size=(3, 3), stride=(1, 1), padding=(1, 1), groups=244, bias=False)
          (4): BatchNorm2d(244, eps=1e-05, momentum=0.1, affine=True, track_running_stats=True)
          (5): Conv2d(244, 244, kernel_size=(1, 1), stride=(1, 1), bias=False)
          (6): BatchNorm2d(244, eps=1e-05, momentum=0.1, affine=True, track_running_stats=True)
          (7): ReLU(inplace=True)
        )
      )
      (3): InvertedResidual(
        (branch1): Sequential()
        (branch2): Sequential(
          (0): Conv2d(244, 244, kernel_size=(1, 1), stride=(1, 1), bias=False)
          (1): BatchNorm2d(244, eps=1e-05, momentum=0.1, affine=True, track_running_stats=True)
          (2): ReLU(inplace=True)
          (3): Conv2d(244, 244, kernel_size=(3, 3), stride=(1, 1), padding=(1, 1), groups=244, bias=False)
          (4): BatchNorm2d(244, eps=1e-05, momentum=0.1, affine=True, track_running_stats=True)
          (5): Conv2d(244, 244, kernel_size=(1, 1), stride=(1, 1), bias=False)
          (6): BatchNorm2d(244, eps=1e-05, momentum=0.1, affine=True, track_running_stats=True)
          (7): ReLU(inplace=True)
        )
      )
      (4): InvertedResidual(
        (branch1): Sequential()
        (branch2): Sequential(
          (0): Conv2d(244, 244, kernel_size=(1, 1), stride=(1, 1), bias=False)
          (1): BatchNorm2d(244, eps=1e-05, momentum=0.1, affine=True, track_running_stats=True)
          (2): ReLU(inplace=True)
          (3): Conv2d(244, 244, kernel_size=(3, 3), stride=(1, 1), padding=(1, 1), groups=244, bias=False)
          (4): BatchNorm2d(244, eps=1e-05, momentum=0.1, affine=True, track_running_stats=True)
          (5): Conv2d(244, 244, kernel_size=(1, 1), stride=(1, 1), bias=False)
          (6): BatchNorm2d(244, eps=1e-05, momentum=0.1, affine=True, track_running_stats=True)
          (7): ReLU(inplace=True)
        )
      )
      (5): InvertedResidual(
        (branch1): Sequential()
        (branch2): Sequential(
          (0): Conv2d(244, 244, kernel_size=(1, 1), stride=(1, 1), bias=False)
          (1): BatchNorm2d(244, eps=1e-05, momentum=0.1, affine=True, track_running_stats=True)
          (2): ReLU(inplace=True)
          (3): Conv2d(244, 244, kernel_size=(3, 3), stride=(1, 1), padding=(1, 1), groups=244, bias=False)
          (4): BatchNorm2d(244, eps=1e-05, momentum=0.1, affine=True, track_running_stats=True)
          (5): Conv2d(244, 244, kernel_size=(1, 1), stride=(1, 1), bias=False)
          (6): BatchNorm2d(244, eps=1e-05, momentum=0.1, affine=True, track_running_stats=True)
          (7): ReLU(inplace=True)
        )
      )
      (6): InvertedResidual(
        (branch1): Sequential()
        (branch2): Sequential(
          (0): Conv2d(244, 244, kernel_size=(1, 1), stride=(1, 1), bias=False)
          (1): BatchNorm2d(244, eps=1e-05, momentum=0.1, affine=True, track_running_stats=True)
          (2): ReLU(inplace=True)
          (3): Conv2d(244, 244, kernel_size=(3, 3), stride=(1, 1), padding=(1, 1), groups=244, bias=False)
          (4): BatchNorm2d(244, eps=1e-05, momentum=0.1, affine=True, track_running_stats=True)
          (5): Conv2d(244, 244, kernel_size=(1, 1), stride=(1, 1), bias=False)
          (6): BatchNorm2d(244, eps=1e-05, momentum=0.1, affine=True, track_running_stats=True)
          (7): ReLU(inplace=True)
        )
      )
      (7): InvertedResidual(
        (branch1): Sequential()
        (branch2): Sequential(
          (0): Conv2d(244, 244, kernel_size=(1, 1), stride=(1, 1), bias=False)
          (1): BatchNorm2d(244, eps=1e-05, momentum=0.1, affine=True, track_running_stats=True)
          (2): ReLU(inplace=True)
          (3): Conv2d(244, 244, kernel_size=(3, 3), stride=(1, 1), padding=(1, 1), groups=244, bias=False)
          (4): BatchNorm2d(244, eps=1e-05, momentum=0.1, affine=True, track_running_stats=True)
          (5): Conv2d(244, 244, kernel_size=(1, 1), stride=(1, 1), bias=False)
          (6): BatchNorm2d(244, eps=1e-05, momentum=0.1, affine=True, track_running_stats=True)
          (7): ReLU(inplace=True)
        )
      )
    )
    (stage4): Sequential(
      (0): InvertedResidual(
        (branch1): Sequential(
          (0): Conv2d(488, 488, kernel_size=(3, 3), stride=(2, 2), padding=(1, 1), groups=488, bias=False)
          (1): BatchNorm2d(488, eps=1e-05, momentum=0.1, affine=True, track_running_stats=True)
          (2): Conv2d(488, 488, kernel_size=(1, 1), stride=(1, 1), bias=False)
          (3): BatchNorm2d(488, eps=1e-05, momentum=0.1, affine=True, track_running_stats=True)
          (4): ReLU(inplace=True)
        )
        (branch2): Sequential(
          (0): Conv2d(488, 488, kernel_size=(1, 1), stride=(1, 1), bias=False)
          (1): BatchNorm2d(488, eps=1e-05, momentum=0.1, affine=True, track_running_stats=True)
          (2): ReLU(inplace=True)
          (3): Conv2d(488, 488, kernel_size=(3, 3), stride=(2, 2), padding=(1, 1), groups=488, bias=False)
          (4): BatchNorm2d(488, eps=1e-05, momentum=0.1, affine=True, track_running_stats=True)
          (5): Conv2d(488, 488, kernel_size=(1, 1), stride=(1, 1), bias=False)
          (6): BatchNorm2d(488, eps=1e-05, momentum=0.1, affine=True, track_running_stats=True)
          (7): ReLU(inplace=True)
        )
      )
      (1): InvertedResidual(
        (branch1): Sequential()
        (branch2): Sequential(
          (0): Conv2d(488, 488, kernel_size=(1, 1), stride=(1, 1), bias=False)
          (1): BatchNorm2d(488, eps=1e-05, momentum=0.1, affine=True, track_running_stats=True)
          (2): ReLU(inplace=True)
          (3): Conv2d(488, 488, kernel_size=(3, 3), stride=(1, 1), padding=(1, 1), groups=488, bias=False)
          (4): BatchNorm2d(488, eps=1e-05, momentum=0.1, affine=True, track_running_stats=True)
          (5): Conv2d(488, 488, kernel_size=(1, 1), stride=(1, 1), bias=False)
          (6): BatchNorm2d(488, eps=1e-05, momentum=0.1, affine=True, track_running_stats=True)
          (7): ReLU(inplace=True)
        )
      )
      (2): InvertedResidual(
        (branch1): Sequential()
        (branch2): Sequential(
          (0): Conv2d(488, 488, kernel_size=(1, 1), stride=(1, 1), bias=False)
          (1): BatchNorm2d(488, eps=1e-05, momentum=0.1, affine=True, track_running_stats=True)
          (2): ReLU(inplace=True)
          (3): Conv2d(488, 488, kernel_size=(3, 3), stride=(1, 1), padding=(1, 1), groups=488, bias=False)
          (4): BatchNorm2d(488, eps=1e-05, momentum=0.1, affine=True, track_running_stats=True)
          (5): Conv2d(488, 488, kernel_size=(1, 1), stride=(1, 1), bias=False)
          (6): BatchNorm2d(488, eps=1e-05, momentum=0.1, affine=True, track_running_stats=True)
          (7): ReLU(inplace=True)
        )
      )
      (3): InvertedResidual(
        (branch1): Sequential()
        (branch2): Sequential(
          (0): Conv2d(488, 488, kernel_size=(1, 1), stride=(1, 1), bias=False)
          (1): BatchNorm2d(488, eps=1e-05, momentum=0.1, affine=True, track_running_stats=True)
          (2): ReLU(inplace=True)
          (3): Conv2d(488, 488, kernel_size=(3, 3), stride=(1, 1), padding=(1, 1), groups=488, bias=False)
          (4): BatchNorm2d(488, eps=1e-05, momentum=0.1, affine=True, track_running_stats=True)
          (5): Conv2d(488, 488, kernel_size=(1, 1), stride=(1, 1), bias=False)
          (6): BatchNorm2d(488, eps=1e-05, momentum=0.1, affine=True, track_running_stats=True)
          (7): ReLU(inplace=True)
        )
      )
    )
    (conv5): Sequential(
      (0): Conv2d(976, 2048, kernel_size=(1, 1), stride=(1, 1), bias=False)
      (1): BatchNorm2d(2048, eps=1e-05, momentum=0.1, affine=True, track_running_stats=True)
      (2): ReLU(inplace=True)
    )
    (fc): Linear(in_features=2048, out_features=1000, bias=True)
  )
)
Sat Jun  3 02:04:08 2023 : torch.cuda.memory_allocated(): 29774336
Sat Jun  3 02:04:08 2023 : torch.cuda.memory_cached(): 35651584
Sat Jun  3 02:04:08 2023 : torch.cuda.synchronize(): None
Sat Jun  3 02:04:09 2023 : Write operation succeeded in 1 attempts
Sat Jun  3 02:04:09 2023 : Write operation succeeded in 1 attempts
Sat Jun  3 02:04:09 2023 : Saving model to: /nfs-share/aai30/projects/msrflute_ex/outputs/openImg/files/2023-06-03 02:03:53.467877/f23c-46f8/models/best_val_acc_model.tar
…
